…
        min_scale: 0.3
        max_scale: 1
        min_aspect_ratio: 0.5
        max_aspect_ratio: 2
      }
      sample_constraint {
        min_jaccard_overlap: 0.9
      }
      max_sample: 1
      max_trials: 50
    }
    batch_sampler {
      sampler {
        min_scale: 0.3
        max_scale: 1
        min_aspect_ratio: 0.5
        max_aspect_ratio: 2
      }
      sample_constraint {
        max_jaccard_overlap: 1
      }
      max_sample: 1
      max_trials: 50
    }
    label_map_file: "/home/styurin/Diploma/lmdb/label_map_s.prototxt"
  }
}
layer {
  name: "conv1"
  type: "Convolution"
  bottom: "data"
  top: "conv1"
  param {
    lr_mult: 0
  }
  param {
    lr_mult: 0
  }
  convolution_param {
    num_output: 64
    kernel_size: 5
    stride: 1
    weight_filler {
      type: "xavier"
    }
  }
}
layer {
  name: "relu1"
  type: "ReLU"
  bottom: "conv1"
  top: "relu1"
}
layer {
  name: "conv2"
  type: "Convolution"
  bottom: "relu1"
  top: "conv2"
  param {
    lr_mult: 0
  }
  param {
    lr_mult: 0
  }
  convolution_param {
    num_output: 64
    kernel_size: 5
    stride: 1
    weight_filler {
      type: "xavier"
    }
  }
}
layer {
  name: "relu2"
  type: "ReLU"
  bottom: "conv2"
  top: "relu2"
}
layer {
  name: "pool2"
  type: "Pooling"
  bottom: "relu2"
  top: "pool2"
  pooling_param {
    pool: MAX
    kernel_size: 3
    stride: 2
  }
}
layer {
  name: "conv3"
  type: "Convolution"
  bottom: "pool2"
  top: "conv3"
  param {
    lr_mult: 0
  }
  param {
    lr_mult: 0
  }
  convolution_param {
    num_output: 128
    kernel_size: 5
    stride: 1
    weight_filler {
      type: "xavier"
    }
  }
}
layer {
  name: "relu3"
  type: "ReLU"
  bottom: "conv3"
  top: "relu3"
}
layer {
  name: "conv4"
  type: "Convolution"
  bottom: "relu3"
  top: "conv4"
  param {
    lr_mult: 0
  }
  param {
    lr_mult: 0
  }
  convolution_param {
    num_output: 128
    kernel_size: 5
    stride: 1
    weight_filler {
      type: "xavier"
    }
  }
}
layer {
  name: "relu4"
  type: "ReLU"
  bottom: "conv4"
  top: "relu4"
}
layer {
  name: "pool4"
  type: "Pooling"
  bottom: "relu4"
  top: "pool4"
  pooling_param {
    pool: MAX
    kernel_size: 3
    stride: 2
  }
}
layer {
  name: "conv5"
  type: "Convolution"
  bottom: "pool4"
  top: "conv5"
  param {
    lr_mult: 0
  }
  param {
    lr_mult: 0
  }
  convolution_param {
    num_output: 256
    kernel_size: 5
    stride: 1
    weight_filler {
      type: "xavier"
    }
  }
}
layer {
  name: "relu5"
  type: "ReLU"
  bottom: "conv5"
  top: "relu5"
}
layer {
  name: "conv6"
  type: "Convolution"
  bottom: "relu5"
  top: "conv6"
  param {
    lr_mult: 0
  }
  param {
    lr_mult: 0
  }
  convolution_param {
    num_output: 256
    kernel_size: 5
    stride: 1
    weight_filler {
      type: "xavier"
    }
  }
}
layer {
  name: "relu6"
  type: "ReLU"
  bottom: "conv6"
  top: "relu6"
}
layer {
  name: "pool6"
  type: "Pooling"
  bottom: "relu6"
  top: "pool6"
  pooling_param {
    pool: MAX
    kernel_size: 2
    stride: 2
  }
}
layer {
  name: "conv7"
  type: "Convolution"
  bottom: "pool6"
  top: "conv7"
  param {
    lr_mult: 0
  }
  param {
    lr_mult: 0
  }
  convolution_param {
    num_output: 128
    kernel_size: 5
    stride: 1
    weight_filler {
      type: "xavier"
    }
  }
}
layer {
  name: "relu7"
  type: "ReLU"
  bottom: "conv7"
  top: "relu7"
}
layer {
  name: "conv3_norm"
  type: "Normalize"
  bottom: "relu3"
  top: "conv3_norm"
  norm_param {
    across_spatial: false
    scale_filler {
      type: "constant"
      value: 20
    }
    channel_shared: false
  }
}
layer {
  name: "conv3_norm_mbox_loc"
  type: "Convolution"
  bottom: "conv3_norm"
  top: "conv3_norm_mbox_loc"
  param {
    lr_mult: 1
    decay_mult: 1
  }
  param {
    lr_mult: 2
    decay_mult: 0
  }
  convolution_param {
    num_output: 16
    pad: 1
    kernel_size: 3
    stride: 1
    weight_filler {
      type: "xavier"
    }
    bias_filler {
      type: "constant"
      value: 0
    }
  }
}
layer {
  name: "conv3_norm_mbox_loc_perm"
  type: "Permute"
  bottom: "conv3_norm_mbox_loc"
  top: "conv3_norm_mbox_loc_perm"
  permute_param {
    order: 0
    order: 2
    order: 3
    order: 1
  }
}
layer {
  name: "conv3_norm_mbox_loc_flat"
  type: "Flatten"
  bottom: "conv3_norm_mbox_loc_perm"
  top: "conv3_norm_mbox_loc_flat"
  flatten_param {
    axis: 1
  }
}
layer {
  name: "conv3_norm_mbox_conf"
  type: "Convolution"
  bottom: "conv3_norm"
  top: "conv3_norm_mbox_conf"
  param {
    lr_mult: 1
    decay_mult: 1
  }
  param {
    lr_mult: 2
    decay_mult: 0
  }
  convolution_param {
    num_output: 16
    pad: 1
    kernel_size: 3
    stride: 1
    weight_filler {
      type: "xavier"
    }
    bias_filler {
      type: "constant"
      value: 0
    }
  }
}
layer {
  name: "conv3_norm_mbox_conf_perm"
  type: "Permute"
  bottom: "conv3_norm_mbox_conf"
  top: "conv3_norm_mbox_conf_perm"
  permute_param {
    order: 0
    order: 2
    order: 3
    order: 1
  }
}
layer {
  name: "conv3_norm_mbox_conf_flat"
  type: "Flatten"
  bottom: "conv3_norm_mbox_conf_perm"
  top: "conv3_norm_mbox_conf_flat"
  flatten_param {
    axis: 1
  }
}
layer {
  name: "conv3_norm_mbox_priorbox"
  type: "PriorBox"
  bottom: "conv3_norm"
  bottom: "data"
  top: "conv3_norm_mbox_priorbox"
  prior_box_param {
    min_size: 30
    max_size: 60
    aspect_ratio: 2
    flip: true
    clip: false
    variance: 0.1
    variance: 0.1
    variance: 0.2
    variance: 0.2
    step: 8
    offset: 0.5
  }
}
layer {
  name: "conv4_norm"
  type: "Normalize"
  bottom: "pool4"
  top: "conv4_norm"
  norm_param {
    across_spatial: false
    scale_filler {
      type: "constant"
      value: 20
    }
    channel_shared: false
  }
}
layer {
  name: "conv4_norm_mbox_loc"
  type: "Convolution"
  bottom: "conv4_norm"
  top: "conv4_norm_mbox_loc"
  param {
    lr_mult: 1
    decay_mult: 1
  }
  param {
    lr_mult: 2
    decay_mult: 0
  }
  convolution_param {
    num_output: 16
    pad: 1
    kernel_size: 3
    stride: 1
    weight_filler {
      type: "xavier"
    }
    bias_filler {
      type: "constant"
      value: 0
    }
  }
}
layer {
  name: "conv4_norm_mbox_loc_perm"
  type: "Permute"
  bottom: "conv4_norm_mbox_loc"
  top: "conv4_norm_mbox_loc_perm"
  permute_param {
    order: 0
    order: 2
    order: 3
    order: 1
  }
}
layer {
  name: "conv4_norm_mbox_loc_flat"
  type: "Flatten"
  bottom: "conv4_norm_mbox_loc_perm"
  top: "conv4_norm_mbox_loc_flat"
  flatten_param {
    axis: 1
  }
}
layer {
  name: "conv4_norm_mbox_conf"
  type: "Convolution"
  bottom: "conv4_norm"
  top: "conv4_norm_mbox_conf"
  param {
    lr_mult: 1
    decay_mult: 1
  }
  param {
    lr_mult: 2
    decay_mult: 0
  }
  convolution_param {
    num_output: 16
    pad: 1
    kernel_size: 3
    stride: 1
    weight_filler {
      type: "xavier"
    }
    bias_filler {
      type: "constant"
      value: 0
    }
  }
}
layer {
  name: "conv4_norm_mbox_conf_perm"
  type: "Permute"
  bottom: "conv4_norm_mbox_conf"
  top: "conv4_norm_mbox_conf_perm"
  permute_param {
    order: 0
    order: 2
    order: 3
    order: 1
  }
}
layer {
  name: "conv4_norm_mbox_conf_flat"
  type: "Flatten"
  bottom: "conv4_norm_mbox_conf_perm"
  top: "conv4_norm_mbox_conf_flat"
  flatten_param {
    axis: 1
  }
}
layer {
  name: "conv4_norm_mbox_priorbox"
  type: "PriorBox"
  bottom: "conv4_norm"
  bottom: "data"
  top: "conv4_norm_mbox_priorbox"
  prior_box_param {
    min_size: 30
    max_size: 60
    aspect_ratio: 2
    flip: true
    clip: false
    variance: 0.1
    variance: 0.1
    variance: 0.2
    variance: 0.2
    step: 8
    offset: 0.5
  }
}
layer {
  name: "conv5_norm"
  type: "Normalize"
  bottom: "relu5"
  top: "conv5_norm"
  norm_param {
    across_spatial: false
    scale_filler {
      type: "constant"
      value: 20
    }
    channel_shared: false
  }
}
layer {
  name: "conv5_norm_mbox_loc"
  type: "Convolution"
  bottom: "conv5_norm"
  top: "conv5_norm_mbox_loc"
  param {
    lr_mult: 1
    decay_mult: 1
  }
  param {
    lr_mult: 2
    decay_mult: 0
  }
  convolution_param {
    num_output: 16
    pad: 1
    kernel_size: 3
    stride: 1
    weight_filler {
      type: "xavier"
    }
    bias_filler {
      type: "constant"
      value: 0
    }
  }
}
layer {
  name: "conv5_norm_mbox_loc_perm"
  type: "Permute"
  bottom: "conv5_norm_mbox_loc"
  top: "conv5_norm_mbox_loc_perm"
  permute_param {
    order: 0
    order: 2
    order: 3
    order: 1
  }
}
layer {
  name: "conv5_norm_mbox_loc_flat"
  type: "Flatten"
  bottom: "conv5_norm_mbox_loc_perm"
  top: "conv5_norm_mbox_loc_flat"
  flatten_param {
    axis: 1
  }
}
layer {
  name: "conv5_norm_mbox_conf"
  type: "Convolution"
  bottom: "conv5_norm"
  top: "conv5_norm_mbox_conf"
  param {
    lr_mult: 1
    decay_mult: 1
  }
  param {
    lr_mult: 2
    decay_mult: 0
  }
  convolution_param {
    num_output: 16
    pad: 1
    kernel_size: 3
    stride: 1
    weight_filler {
      type: "xavier"
    }
    bias_filler {
      type: "constant"
      value: 0
    }
  }
}
layer {
  name: "conv5_norm_mbox_conf_perm"
  type: "Permute"
  bottom: "conv5_norm_mbox_conf"
  top: "conv5_norm_mbox_conf_perm"
  permute_param {
    order: 0
    order: 2
    order: 3
    order: 1
  }
}
layer {
  name: "conv5_norm_mbox_conf_flat"
  type: "Flatten"
  bottom: "conv5_norm_mbox_conf_perm"
  top: "conv5_norm_mbox_conf_flat"
  flatten_param {
    axis: 1
  }
}
layer {
  name: "conv5_norm_mbox_priorbox"
  type: "PriorBox"
  bottom: "conv5_norm"
  bottom: "data"
  top: "conv5_norm_mbox_priorbox"
  prior_box_param {
    min_size: 30
    max_size: 60
    aspect_ratio: 2
    flip: true
    clip: false
    variance: 0.1
    variance: 0.1
    variance: 0.2
    variance: 0.2
    step: 8
    offset: 0.5
  }
}
layer {
  name: "conv6_norm"
  type: "Normalize"
  bottom: "pool6"
  top: "conv6_norm"
  norm_param {
    across_spatial: false
    scale_filler {
      type: "constant"
      value: 20
    }
    channel_shared: false
  }
}
layer {
  name: "conv6_norm_mbox_loc"
  type: "Convolution"
  bottom: "conv6_norm"
  top: "conv6_norm_mbox_loc"
  param {
    lr_mult: 1
    decay_mult: 1
  }
  param {
    lr_mult: 2
    decay_mult: 0
  }
  convolution_param {
    num_output: 16
    pad: 1
    kernel_size: 3
    stride: 1
    weight_filler {
      type: "xavier"
    }
    bias_filler {
      type: "constant"
      value: 0
    }
  }
}
layer {
  name: "conv6_norm_mbox_loc_perm"
  type: "Permute"
  bottom: "conv6_norm_mbox_loc"
  top: "conv6_norm_mbox_loc_perm"
  permute_param {
    order: 0
    order: 2
    order: 3
    order: 1
  }
}
layer {
  name: "conv6_norm_mbox_loc_flat"
  type: "Flatten"
  bottom: "conv6_norm_mbox_loc_perm"
  top: "conv6_norm_mbox_loc_flat"
  flatten_param {
    axis: 1
  }
}
layer {
  name: "conv6_norm_mbox_conf"
  type: "Convolution"
  bottom: "conv6_norm"
  top: "conv6_norm_mbox_conf"
  param {
    lr_mult: 1
    decay_mult: 1
  }
  param {
    lr_mult: 2
    decay_mult: 0
  }
  convolution_param {
    num_output: 16
    pad: 1
    kernel_size: 3
    stride: 1
    weight_filler {
      type: "xavier"
    }
    bias_filler {
      type: "constant"
      value: 0
    }
  }
}
layer {
  name: "conv6_norm_mbox_conf_perm"
  type: "Permute"
  bottom: "conv6_norm_mbox_conf"
  top: "conv6_norm_mbox_conf_perm"
  permute_param {
    order: 0
    order: 2
    order: 3
    order: 1
  }
}
layer {
  name: "conv6_norm_mbox_conf_flat"
  type: "Flatten"
  bottom: "conv6_norm_mbox_conf_perm"
  top: "conv6_norm_mbox_conf_flat"
  flatten_param {
    axis: 1
  }
}
layer {
  name: "conv6_norm_mbox_priorbox"
  type: "PriorBox"
  bottom: "conv6_norm"
  bottom: "data"
  top: "conv6_norm_mbox_priorbox"
  prior_box_param {
    min_size: 30
    max_size: 60
    aspect_ratio: 2
    flip: true
    clip: false
    variance: 0.1
    variance: 0.1
    variance: 0.2
    variance: 0.2
    step: 8
    offset: 0.5
  }
}
layer {
  name: "conv7_norm"
  type: "Normalize"
  bottom: "relu7"
  top: "conv7_norm"
  norm_param {
    across_spatial: false
    scale_filler {
      type: "constant"
      value: 20
    }
    channel_shared: false
  }
}
layer {
  name: "conv7_norm_mbox_loc"
  type: "Convolution"
  bottom: "conv7_norm"
  top: "conv7_norm_mbox_loc"
  param {
    lr_mult: 1
    decay_mult: 1
  }
  param {
    lr_mult: 2
    decay_mult: 0
  }
  convolution_param {
    num_output: 16
    pad: 1
    kernel_size: 3
    stride: 1
    weight_filler {
      type: "xavier"
    }
    bias_filler {
      type: "constant"
      value: 0
    }
  }
}
layer {
  name: "conv7_norm_mbox_loc_perm"
  type: "Permute"
  bottom: "conv7_norm_mbox_loc"
  top: "conv7_norm_mbox_loc_perm"
  permute_param {
    order: 0
    order: 2
    order: 3
    order: 1
  }
}
layer {
  name: "conv7_norm_mbox_loc_flat"
  type: "Flatten"
  bottom: "conv7_norm_mbox_loc_perm"
  top: "conv7_norm_mbox_loc_flat"
  flatten_param {
    axis: 1
  }
}
layer {
  name: "conv7_norm_mbox_conf"
  type: "Convolution"
  bottom: "conv7_norm"
  top: "conv7_norm_mbox_conf"
  param {
    lr_mult: 1
    decay_mult: 1
  }
  param {
    lr_mult: 2
    decay_mult: 0
  }
  convolution_param {
    num_output: 16
    pad: 1
    kernel_size: 3
    stride: 1
    weight_filler {
      type: "xavier"
    }
    bias_filler {
      type: "constant"
      value: 0
    }
  }
}
layer {
  name: "conv7_norm_mbox_conf_perm"
  type: "Permute"
  bottom: "conv7_norm_mbox_conf"
  top: "conv7_norm_mbox_conf_perm"
  permute_param {
    order: 0
    order: 2
    order: 3
    order: 1
  }
}
layer {
  name: "conv7_norm_mbox_conf_flat"
  type: "Flatten"
  bottom: "conv7_norm_mbox_conf_perm"
  top: "conv7_norm_mbox_conf_flat"
  flatten_param {
    axis: 1
  }
}
layer {
  name: "conv7_norm_mbox_priorbox"
  type: "PriorBox"
  bottom: "conv7_norm"
  bottom: "data"
  top: "conv7_norm_mbox_priorbox"
  prior_box_param {
    min_size: 30
    max_size: 60
    aspect_ratio: 2
    flip: true
    clip: false
    variance: 0.1
    variance: 0.1
    variance: 0.2
    variance: 0.2
    step: 8
    offset: 0.5
  }
}
layer {
  name: "mbox_loc"
  type: "Concat"
  bottom: "conv3_norm_mbox_loc_flat"
  bottom: "conv4_norm_mbox_loc_flat"
  bottom: "conv5_norm_mbox_loc_flat"
  bottom: "conv6_norm_mbox_loc_flat"
  bottom: "conv7_norm_mbox_loc_flat"
  top: "mbox_loc"
  concat_param {
    axis: 1
  }
}
layer {
  name: "mbox_conf"
  type: "Concat"
  bottom: "conv3_norm_mbox_conf_flat"
  bottom: "conv4_norm_mbox_conf_flat"
  bottom: "conv5_norm_mbox_conf_flat"
  bottom: "conv6_norm_mbox_conf_flat"
  bottom: "conv7_norm_mbox_conf_flat"
  top: "mbox_conf"
  concat_param {
    axis: 1
  }
}
layer {
  name: "mbox_priorbox"
  type: "Concat"
  bottom: "conv3_norm_mbox_priorbox"
  bottom: "conv4_norm_mbox_priorbox"
  bottom: "conv5_norm_mbox_priorbox"
  bottom: "conv6_norm_mbox_priorbox"
  bottom: "conv7_norm_mbox_priorbox"
  top: "mbox_priorbox"
  concat_param {
    axis: 2
  }
}
layer {
  name: "mbox_loss"
  type: "MultiBoxLoss"
  bottom: "mbox_loc"
  bottom: "mbox_conf"
  bottom: "mbox_priorbox"
  bottom: "label"
  top: "mbox_loss"
  include {
    phase: TRAIN
  }
  propagate_down: true
  propagate_down: true
  propagate_down: false
  propagate_down: false
  loss_param {
    normalization: VALID
  }
  multibox_loss_param {
    loc_loss_type: SMOOTH_L1
    conf_loss_type: SOFTMAX
    loc_weight: 1
    num_classes: 4
    share_location: true
    match_type: PER_PREDICTION
    overlap_threshold: 0.5
    use_prior_for_matching: true
…
I0314 16:27:12.087661  8828 annotated_data_layer.cpp:119] Label_shape
I0314 16:27:12.087677  8828 annotated_data_layer.cpp:121] 1
I0314 16:27:12.087692  8828 annotated_data_layer.cpp:121] 1
I0314 16:27:12.087708  8828 annotated_data_layer.cpp:121] 8
I0314 16:27:12.087724  8828 annotated_data_layer.cpp:121] 8
I0314 16:27:12.087764  8828 annotated_data_layer.cpp:125] reshape_top 
I0314 16:27:12.087782  8828 annotated_data_layer.cpp:127] 0x8e52030
I0314 16:27:12.087803  8828 annotated_data_layer.cpp:127] 0x8e52230
I0314 16:27:12.109944  8828 net.cpp:150] Setting up data
I0314 16:27:12.110036  8828 net.cpp:157] Top shape: 8 3 300 300 (2160000)
I0314 16:27:12.110091  8828 net.cpp:157] Top shape: 1 1 8 8 (64)
I0314 16:27:12.110100  8828 net.cpp:165] Memory required for data: 8640256
I0314 16:27:12.110137  8828 layer_factory.hpp:77] Creating layer data_data_0_split
I0314 16:27:12.110177  8828 net.cpp:100] Creating Layer data_data_0_split
I0314 16:27:12.110198  8828 net.cpp:434] data_data_0_split <- data
I0314 16:27:12.110224  8828 net.cpp:408] data_data_0_split -> data_data_0_split_0
I0314 16:27:12.110256  8828 net.cpp:408] data_data_0_split -> data_data_0_split_1
I0314 16:27:12.110280  8828 net.cpp:408] data_data_0_split -> data_data_0_split_2
I0314 16:27:12.110316  8828 net.cpp:408] data_data_0_split -> data_data_0_split_3
I0314 16:27:12.110338  8828 net.cpp:408] data_data_0_split -> data_data_0_split_4
I0314 16:27:12.110354  8828 net.cpp:408] data_data_0_split -> data_data_0_split_5
I0314 16:27:12.110507  8828 net.cpp:150] Setting up data_data_0_split
I0314 16:27:12.110538  8828 net.cpp:157] Top shape: 8 3 300 300 (2160000)
I0314 16:27:12.110558  8828 net.cpp:157] Top shape: 8 3 300 300 (2160000)
I0314 16:27:12.110575  8828 net.cpp:157] Top shape: 8 3 300 300 (2160000)
I0314 16:27:12.110594  8828 net.cpp:157] Top shape: 8 3 300 300 (2160000)
I0314 16:27:12.110611  8828 net.cpp:157] Top shape: 8 3 300 300 (2160000)
I0314 16:27:12.110621  8828 net.cpp:157] Top shape: 8 3 300 300 (2160000)
I0314 16:27:12.110628  8828 net.cpp:165] Memory required for data: 60480256
I0314 16:27:12.110644  8828 layer_factory.hpp:77] Creating layer conv1
I0314 16:27:12.110684  8828 net.cpp:100] Creating Layer conv1
I0314 16:27:12.110703  8828 net.cpp:434] conv1 <- data_data_0_split_0
I0314 16:27:12.110724  8828 net.cpp:408] conv1 -> conv1
I0314 16:27:12.110838  8834 annotated_data_layer.cpp:139] Load batch
…
I0314 16:27:12.423283  8834 annotated_data_layer.cpp:234] 3 3
I0314 16:27:12.423290  8834 annotated_data_layer.cpp:234] 300 3
I0314 16:27:12.423295  8834 annotated_data_layer.cpp:234] 300 3
I0314 16:27:12.448158  8834 data_transformer.cpp:1068] INFER 3
I0314 16:27:12.448185  8834 annotated_data_layer.cpp:234] 8 3
I0314 16:27:12.448191  8834 annotated_data_layer.cpp:234] 3 3
I0314 16:27:12.448197  8834 annotated_data_layer.cpp:234] 300 3
I0314 16:27:12.448204  8834 annotated_data_layer.cpp:234] 300 3
I0314 16:27:12.466271  8828 net.cpp:150] Setting up conv1
I0314 16:27:12.466338  8828 net.cpp:157] Top shape: 8 64 296 296 (44859392)
I0314 16:27:12.466346  8828 net.cpp:165] Memory required for data: 239917824
I0314 16:27:12.466374  8828 layer_factory.hpp:77] Creating layer relu1
I0314 16:27:12.466399  8828 net.cpp:100] Creating Layer relu1
I0314 16:27:12.466406  8828 net.cpp:434] relu1 <- conv1
I0314 16:27:12.466423  8828 net.cpp:408] relu1 -> relu1
I0314 16:27:12.466945  8828 net.cpp:150] Setting up relu1
I0314 16:27:12.466980  8828 net.cpp:157] Top shape: 8 64 296 296 (44859392)
I0314 16:27:12.466987  8828 net.cpp:165] Memory required for data: 419355392
I0314 16:27:12.467010  8828 layer_factory.hpp:77] Creating layer conv2
I0314 16:27:12.467057  8828 net.cpp:100] Creating Layer conv2
I0314 16:27:12.467064  8828 net.cpp:434] conv2 <- relu1
I0314 16:27:12.467080  8828 net.cpp:408] conv2 -> conv2
I0314 16:27:12.469926  8828 net.cpp:150] Setting up conv2
I0314 16:27:12.469962  8828 net.cpp:157] Top shape: 8 64 292 292 (43655168)
I0314 16:27:12.469969  8828 net.cpp:165] Memory required for data: 593976064
I0314 16:27:12.469988  8828 layer_factory.hpp:77] Creating layer relu2
I0314 16:27:12.470005  8828 net.cpp:100] Creating Layer relu2
I0314 16:27:12.470011  8828 net.cpp:434] relu2 <- conv2
I0314 16:27:12.470027  8828 net.cpp:408] relu2 -> relu2
I0314 16:27:12.470237  8828 net.cpp:150] Setting up relu2
I0314 16:27:12.470266  8828 net.cpp:157] Top shape: 8 64 292 292 (43655168)
I0314 16:27:12.470273  8828 net.cpp:165] Memory required for data: 768596736
I0314 16:27:12.470278  8828 layer_factory.hpp:77] Creating layer pool2
I0314 16:27:12.470296  8828 net.cpp:100] Creating Layer pool2
I0314 16:27:12.470302  8828 net.cpp:434] pool2 <- relu2
I0314 16:27:12.470319  8828 net.cpp:408] pool2 -> pool2
I0314 16:27:12.470382  8828 net.cpp:150] Setting up pool2
I0314 16:27:12.470399  8828 net.cpp:157] Top shape: 8 64 146 146 (10913792)
I0314 16:27:12.470405  8828 net.cpp:165] Memory required for data: 812251904
I0314 16:27:12.470410  8828 layer_factory.hpp:77] Creating layer conv3
I0314 16:27:12.470429  8828 net.cpp:100] Creating Layer conv3
I0314 16:27:12.470435  8828 net.cpp:434] conv3 <- pool2
I0314 16:27:12.470451  8828 net.cpp:408] conv3 -> conv3
I0314 16:27:12.474519  8828 net.cpp:150] Setting up conv3
I0314 16:27:12.474556  8828 net.cpp:157] Top shape: 8 128 142 142 (20647936)
I0314 16:27:12.474562  8828 net.cpp:165] Memory required for data: 894843648
I0314 16:27:12.474581  8828 layer_factory.hpp:77] Creating layer relu3
I0314 16:27:12.474602  8828 net.cpp:100] Creating Layer relu3
I0314 16:27:12.474609  8828 net.cpp:434] relu3 <- conv3
I0314 16:27:12.474625  8828 net.cpp:408] relu3 -> relu3
I0314 16:27:12.474851  8828 net.cpp:150] Setting up relu3
I0314 16:27:12.474887  8828 net.cpp:157] Top shape: 8 128 142 142 (20647936)
I0314 16:27:12.474894  8828 net.cpp:165] Memory required for data: 977435392
I0314 16:27:12.474900  8828 layer_factory.hpp:77] Creating layer relu3_relu3_0_split
I0314 16:27:12.474915  8828 net.cpp:100] Creating Layer relu3_relu3_0_split
I0314 16:27:12.474921  8828 net.cpp:434] relu3_relu3_0_split <- relu3
I0314 16:27:12.474937  8828 net.cpp:408] relu3_relu3_0_split -> relu3_relu3_0_split_0
I0314 16:27:12.474956  8828 net.cpp:408] relu3_relu3_0_split -> relu3_relu3_0_split_1
I0314 16:27:12.475013  8828 net.cpp:150] Setting up relu3_relu3_0_split
I0314 16:27:12.475031  8828 net.cpp:157] Top shape: 8 128 142 142 (20647936)
I0314 16:27:12.475037  8828 net.cpp:157] Top shape: 8 128 142 142 (20647936)
I0314 16:27:12.475042  8828 net.cpp:165] Memory required for data: 1142618880
I0314 16:27:12.475049  8828 layer_factory.hpp:77] Creating layer conv4
I0314 16:27:12.475069  8828 net.cpp:100] Creating Layer conv4
I0314 16:27:12.475075  8828 net.cpp:434] conv4 <- relu3_relu3_0_split_0
I0314 16:27:12.475090  8828 net.cpp:408] conv4 -> conv4
I0314 16:27:12.479758  8828 net.cpp:150] Setting up conv4
I0314 16:27:12.479794  8828 net.cpp:157] Top shape: 8 128 138 138 (19501056)
I0314 16:27:12.479799  8828 net.cpp:165] Memory required for data: 1220623104
I0314 16:27:12.479816  8828 layer_factory.hpp:77] Creating layer relu4
I0314 16:27:12.479836  8828 net.cpp:100] Creating Layer relu4
I0314 16:27:12.479842  8828 net.cpp:434] relu4 <- conv4
I0314 16:27:12.479861  8828 net.cpp:408] relu4 -> relu4
I0314 16:27:12.480370  8828 net.cpp:150] Setting up relu4
I0314 16:27:12.480404  8828 net.cpp:157] Top shape: 8 128 138 138 (19501056)
I0314 16:27:12.480410  8828 net.cpp:165] Memory required for data: 1298627328
I0314 16:27:12.480417  8828 layer_factory.hpp:77] Creating layer pool4
I0314 16:27:12.480435  8828 net.cpp:100] Creating Layer pool4
I0314 16:27:12.480454  8828 net.cpp:434] pool4 <- relu4
I0314 16:27:12.480476  8828 net.cpp:408] pool4 -> pool4
I0314 16:27:12.480533  8828 net.cpp:150] Setting up pool4
I0314 16:27:12.480551  8828 net.cpp:157] Top shape: 8 128 69 69 (4875264)
I0314 16:27:12.480556  8828 net.cpp:165] Memory required for data: 1318128384
I0314 16:27:12.480561  8828 layer_factory.hpp:77] Creating layer pool4_pool4_0_split
I0314 16:27:12.480576  8828 net.cpp:100] Creating Layer pool4_pool4_0_split
I0314 16:27:12.480584  8828 net.cpp:434] pool4_pool4_0_split <- pool4
I0314 16:27:12.480599  8828 net.cpp:408] pool4_pool4_0_split -> pool4_pool4_0_split_0
I0314 16:27:12.480615  8828 net.cpp:408] pool4_pool4_0_split -> pool4_pool4_0_split_1
I0314 16:27:12.480664  8828 net.cpp:150] Setting up pool4_pool4_0_split
I0314 16:27:12.480680  8828 net.cpp:157] Top shape: 8 128 69 69 (4875264)
I0314 16:27:12.480687  8828 net.cpp:157] Top shape: 8 128 69 69 (4875264)
I0314 16:27:12.480692  8828 net.cpp:165] Memory required for data: 1357130496
I0314 16:27:12.480697  8828 layer_factory.hpp:77] Creating layer conv5
I0314 16:27:12.480717  8828 net.cpp:100] Creating Layer conv5
I0314 16:27:12.480723  8828 net.cpp:434] conv5 <- pool4_pool4_0_split_0
I0314 16:27:12.480741  8828 net.cpp:408] conv5 -> conv5
I0314 16:27:12.488729  8828 net.cpp:150] Setting up conv5
I0314 16:27:12.488766  8828 net.cpp:157] Top shape: 8 256 65 65 (8652800)
I0314 16:27:12.488773  8828 net.cpp:165] Memory required for data: 1391741696
I0314 16:27:12.488793  8828 layer_factory.hpp:77] Creating layer relu5
I0314 16:27:12.488811  8828 net.cpp:100] Creating Layer relu5
I0314 16:27:12.488816  8828 net.cpp:434] relu5 <- conv5
I0314 16:27:12.488826  8828 net.cpp:408] relu5 -> relu5
I0314 16:27:12.489063  8828 net.cpp:150] Setting up relu5
I0314 16:27:12.489092  8828 net.cpp:157] Top shape: 8 256 65 65 (8652800)
I0314 16:27:12.489097  8828 net.cpp:165] Memory required for data: 1426352896
I0314 16:27:12.489104  8828 layer_factory.hpp:77] Creating layer relu5_relu5_0_split
I0314 16:27:12.489125  8828 net.cpp:100] Creating Layer relu5_relu5_0_split
I0314 16:27:12.489130  8828 net.cpp:434] relu5_relu5_0_split <- relu5
I0314 16:27:12.489148  8828 net.cpp:408] relu5_relu5_0_split -> relu5_relu5_0_split_0
I0314 16:27:12.489166  8828 net.cpp:408] relu5_relu5_0_split -> relu5_relu5_0_split_1
I0314 16:27:12.489217  8828 net.cpp:150] Setting up relu5_relu5_0_split
I0314 16:27:12.489236  8828 net.cpp:157] Top shape: 8 256 65 65 (8652800)
I0314 16:27:12.489243  8828 net.cpp:157] Top shape: 8 256 65 65 (8652800)
I0314 16:27:12.489248  8828 net.cpp:165] Memory required for data: 1495575296
I0314 16:27:12.489253  8828 layer_factory.hpp:77] Creating layer conv6
I0314 16:27:12.489274  8828 net.cpp:100] Creating Layer conv6
I0314 16:27:12.489280  8828 net.cpp:434] conv6 <- relu5_relu5_0_split_0
I0314 16:27:12.489297  8828 net.cpp:408] conv6 -> conv6
I0314 16:27:12.501363  8834 data_transformer.cpp:1068] INFER 3
I0314 16:27:12.501399  8834 annotated_data_layer.cpp:234] 8 3
I0314 16:27:12.501405  8834 annotated_data_layer.cpp:234] 3 3
I0314 16:27:12.501410  8834 annotated_data_layer.cpp:234] 300 3
I0314 16:27:12.501415  8834 annotated_data_layer.cpp:234] 300 3
I0314 16:27:12.503937  8828 net.cpp:150] Setting up conv6
I0314 16:27:12.503976  8828 net.cpp:157] Top shape: 8 256 61 61 (7620608)
I0314 16:27:12.503983  8828 net.cpp:165] Memory required for data: 1526057728
I0314 16:27:12.504000  8828 layer_factory.hpp:77] Creating layer relu6
I0314 16:27:12.504011  8828 net.cpp:100] Creating Layer relu6
I0314 16:27:12.504017  8828 net.cpp:434] relu6 <- conv6
I0314 16:27:12.504034  8828 net.cpp:408] relu6 -> relu6
I0314 16:27:12.504266  8828 net.cpp:150] Setting up relu6
I0314 16:27:12.504299  8828 net.cpp:157] Top shape: 8 256 61 61 (7620608)
I0314 16:27:12.504305  8828 net.cpp:165] Memory required for data: 1556540160
I0314 16:27:12.504310  8828 layer_factory.hpp:77] Creating layer pool6
I0314 16:27:12.504328  8828 net.cpp:100] Creating Layer pool6
I0314 16:27:12.504333  8828 net.cpp:434] pool6 <- relu6
I0314 16:27:12.504350  8828 net.cpp:408] pool6 -> pool6
I0314 16:27:12.504412  8828 net.cpp:150] Setting up pool6
I0314 16:27:12.504446  8828 net.cpp:157] Top shape: 8 256 31 31 (1968128)
I0314 16:27:12.504451  8828 net.cpp:165] Memory required for data: 1564412672
I0314 16:27:12.504457  8828 layer_factory.hpp:77] Creating layer pool6_pool6_0_split
I0314 16:27:12.504474  8828 net.cpp:100] Creating Layer pool6_pool6_0_split
I0314 16:27:12.504480  8828 net.cpp:434] pool6_pool6_0_split <- pool6
I0314 16:27:12.504495  8828 net.cpp:408] pool6_pool6_0_split -> pool6_pool6_0_split_0
I0314 16:27:12.504513  8828 net.cpp:408] pool6_pool6_0_split -> pool6_pool6_0_split_1
I0314 16:27:12.504564  8828 net.cpp:150] Setting up pool6_pool6_0_split
I0314 16:27:12.504572  8828 net.cpp:157] Top shape: 8 256 31 31 (1968128)
I0314 16:27:12.504578  8828 net.cpp:157] Top shape: 8 256 31 31 (1968128)
I0314 16:27:12.504583  8828 net.cpp:165] Memory required for data: 1580157696
I0314 16:27:12.504588  8828 layer_factory.hpp:77] Creating layer conv7
I0314 16:27:12.504609  8828 net.cpp:100] Creating Layer conv7
I0314 16:27:12.504616  8828 net.cpp:434] conv7 <- pool6_pool6_0_split_0
I0314 16:27:12.504633  8828 net.cpp:408] conv7 -> conv7
I0314 16:27:12.512980  8828 net.cpp:150] Setting up conv7
I0314 16:27:12.513017  8828 net.cpp:157] Top shape: 8 128 27 27 (746496)
I0314 16:27:12.513023  8828 net.cpp:165] Memory required for data: 1583143680
I0314 16:27:12.513041  8828 layer_factory.hpp:77] Creating layer relu7
I0314 16:27:12.513061  8828 net.cpp:100] Creating Layer relu7
I0314 16:27:12.513067  8828 net.cpp:434] relu7 <- conv7
I0314 16:27:12.513083  8828 net.cpp:408] relu7 -> relu7
I0314 16:27:12.513607  8828 net.cpp:150] Setting up relu7
I0314 16:27:12.513633  8828 net.cpp:157] Top shape: 8 128 27 27 (746496)
I0314 16:27:12.513638  8828 net.cpp:165] Memory required for data: 1586129664
I0314 16:27:12.513644  8828 layer_factory.hpp:77] Creating layer conv3_norm
I0314 16:27:12.513664  8828 net.cpp:100] Creating Layer conv3_norm
I0314 16:27:12.513671  8828 net.cpp:434] conv3_norm <- relu3_relu3_0_split_1
I0314 16:27:12.513687  8828 net.cpp:408] conv3_norm -> conv3_norm
I0314 16:27:12.513890  8828 net.cpp:150] Setting up conv3_norm
I0314 16:27:12.513911  8828 net.cpp:157] Top shape: 8 128 142 142 (20647936)
I0314 16:27:12.513917  8828 net.cpp:165] Memory required for data: 1668721408
I0314 16:27:12.513932  8828 layer_factory.hpp:77] Creating layer conv3_norm_conv3_norm_0_split
I0314 16:27:12.513948  8828 net.cpp:100] Creating Layer conv3_norm_conv3_norm_0_split
I0314 16:27:12.513954  8828 net.cpp:434] conv3_norm_conv3_norm_0_split <- conv3_norm
I0314 16:27:12.513972  8828 net.cpp:408] conv3_norm_conv3_norm_0_split -> conv3_norm_conv3_norm_0_split_0
I0314 16:27:12.513990  8828 net.cpp:408] conv3_norm_conv3_norm_0_split -> conv3_norm_conv3_norm_0_split_1
I0314 16:27:12.514006  8828 net.cpp:408] conv3_norm_conv3_norm_0_split -> conv3_norm_conv3_norm_0_split_2
I0314 16:27:12.514068  8828 net.cpp:150] Setting up conv3_norm_conv3_norm_0_split
I0314 16:27:12.514086  8828 net.cpp:157] Top shape: 8 128 142 142 (20647936)
I0314 16:27:12.514092  8828 net.cpp:157] Top shape: 8 128 142 142 (20647936)
I0314 16:27:12.514098  8828 net.cpp:157] Top shape: 8 128 142 142 (20647936)
I0314 16:27:12.514103  8828 net.cpp:165] Memory required for data: 1916496640
I0314 16:27:12.514108  8828 layer_factory.hpp:77] Creating layer conv3_norm_mbox_loc
I0314 16:27:12.514129  8828 net.cpp:100] Creating Layer conv3_norm_mbox_loc
I0314 16:27:12.514137  8828 net.cpp:434] conv3_norm_mbox_loc <- conv3_norm_conv3_norm_0_split_0
I0314 16:27:12.514155  8828 net.cpp:408] conv3_norm_mbox_loc -> conv3_norm_mbox_loc
I0314 16:27:12.516276  8828 net.cpp:150] Setting up conv3_norm_mbox_loc
I0314 16:27:12.516314  8828 net.cpp:157] Top shape: 8 16 142 142 (2580992)
I0314 16:27:12.516320  8828 net.cpp:165] Memory required for data: 1926820608
I0314 16:27:12.516341  8828 layer_factory.hpp:77] Creating layer conv3_norm_mbox_loc_perm
I0314 16:27:12.516362  8828 net.cpp:100] Creating Layer conv3_norm_mbox_loc_perm
I0314 16:27:12.516381  8828 net.cpp:434] conv3_norm_mbox_loc_perm <- conv3_norm_mbox_loc
I0314 16:27:12.516403  8828 net.cpp:408] conv3_norm_mbox_loc_perm -> conv3_norm_mbox_loc_perm
I0314 16:27:12.516536  8828 net.cpp:150] Setting up conv3_norm_mbox_loc_perm
I0314 16:27:12.516556  8828 net.cpp:157] Top shape: 8 142 142 16 (2580992)
I0314 16:27:12.516561  8828 net.cpp:165] Memory required for data: 1937144576
I0314 16:27:12.516566  8828 layer_factory.hpp:77] Creating layer conv3_norm_mbox_loc_flat
I0314 16:27:12.516585  8828 net.cpp:100] Creating Layer conv3_norm_mbox_loc_flat
I0314 16:27:12.516592  8828 net.cpp:434] conv3_norm_mbox_loc_flat <- conv3_norm_mbox_loc_perm
I0314 16:27:12.516607  8828 net.cpp:408] conv3_norm_mbox_loc_flat -> conv3_norm_mbox_loc_flat
I0314 16:27:12.516649  8828 net.cpp:150] Setting up conv3_norm_mbox_loc_flat
I0314 16:27:12.516666  8828 net.cpp:157] Top shape: 8 322624 (2580992)
I0314 16:27:12.516672  8828 net.cpp:165] Memory required for data: 1947468544
I0314 16:27:12.516677  8828 layer_factory.hpp:77] Creating layer conv3_norm_mbox_conf
I0314 16:27:12.516700  8828 net.cpp:100] Creating Layer conv3_norm_mbox_conf
I0314 16:27:12.516721  8828 net.cpp:434] conv3_norm_mbox_conf <- conv3_norm_conv3_norm_0_split_1
I0314 16:27:12.516731  8828 net.cpp:408] conv3_norm_mbox_conf -> conv3_norm_mbox_conf
I0314 16:27:12.518302  8828 net.cpp:150] Setting up conv3_norm_mbox_conf
I0314 16:27:12.518337  8828 net.cpp:157] Top shape: 8 16 142 142 (2580992)
I0314 16:27:12.518343  8828 net.cpp:165] Memory required for data: 1957792512
I0314 16:27:12.518360  8828 layer_factory.hpp:77] Creating layer conv3_norm_mbox_conf_perm
I0314 16:27:12.518379  8828 net.cpp:100] Creating Layer conv3_norm_mbox_conf_perm
I0314 16:27:12.518386  8828 net.cpp:434] conv3_norm_mbox_conf_perm <- conv3_norm_mbox_conf
I0314 16:27:12.518402  8828 net.cpp:408] conv3_norm_mbox_conf_perm -> conv3_norm_mbox_conf_perm
I0314 16:27:12.518532  8828 net.cpp:150] Setting up conv3_norm_mbox_conf_perm
I0314 16:27:12.518549  8828 net.cpp:157] Top shape: 8 142 142 16 (2580992)
I0314 16:27:12.518554  8828 net.cpp:165] Memory required for data: 1968116480
I0314 16:27:12.518560  8828 layer_factory.hpp:77] Creating layer conv3_norm_mbox_conf_flat
I0314 16:27:12.518576  8828 net.cpp:100] Creating Layer conv3_norm_mbox_conf_flat
I0314 16:27:12.518582  8828 net.cpp:434] conv3_norm_mbox_conf_flat <- conv3_norm_mbox_conf_perm
I0314 16:27:12.518600  8828 net.cpp:408] conv3_norm_mbox_conf_flat -> conv3_norm_mbox_conf_flat
I0314 16:27:12.518640  8828 net.cpp:150] Setting up conv3_norm_mbox_conf_flat
I0314 16:27:12.518658  8828 net.cpp:157] Top shape: 8 322624 (2580992)
I0314 16:27:12.518663  8828 net.cpp:165] Memory required for data: 1978440448
I0314 16:27:12.518668  8828 layer_factory.hpp:77] Creating layer conv3_norm_mbox_priorbox
I0314 16:27:12.518687  8828 net.cpp:100] Creating Layer conv3_norm_mbox_priorbox
I0314 16:27:12.518692  8828 net.cpp:434] conv3_norm_mbox_priorbox <- conv3_norm_conv3_norm_0_split_2
I0314 16:27:12.518699  8828 net.cpp:434] conv3_norm_mbox_priorbox <- data_data_0_split_1
I0314 16:27:12.518724  8828 net.cpp:408] conv3_norm_mbox_priorbox -> conv3_norm_mbox_priorbox
I0314 16:27:12.518770  8828 net.cpp:150] Setting up conv3_norm_mbox_priorbox
I0314 16:27:12.518787  8828 net.cpp:157] Top shape: 1 2 322624 (645248)
I0314 16:27:12.518793  8828 net.cpp:165] Memory required for data: 1981021440
I0314 16:27:12.518798  8828 layer_factory.hpp:77] Creating layer conv4_norm
I0314 16:27:12.518821  8828 net.cpp:100] Creating Layer conv4_norm
I0314 16:27:12.518827  8828 net.cpp:434] conv4_norm <- pool4_pool4_0_split_1
I0314 16:27:12.518836  8828 net.cpp:408] conv4_norm -> conv4_norm
I0314 16:27:12.519034  8828 net.cpp:150] Setting up conv4_norm
I0314 16:27:12.519054  8828 net.cpp:157] Top shape: 8 128 69 69 (4875264)
I0314 16:27:12.519059  8828 net.cpp:165] Memory required for data: 2000522496
I0314 16:27:12.519074  8828 layer_factory.hpp:77] Creating layer conv4_norm_conv4_norm_0_split
I0314 16:27:12.519093  8828 net.cpp:100] Creating Layer conv4_norm_conv4_norm_0_split
I0314 16:27:12.519111  8828 net.cpp:434] conv4_norm_conv4_norm_0_split <- conv4_norm
I0314 16:27:12.519142  8828 net.cpp:408] conv4_norm_conv4_norm_0_split -> conv4_norm_conv4_norm_0_split_0
I0314 16:27:12.519160  8828 net.cpp:408] conv4_norm_conv4_norm_0_split -> conv4_norm_conv4_norm_0_split_1
I0314 16:27:12.519177  8828 net.cpp:408] conv4_norm_conv4_norm_0_split -> conv4_norm_conv4_norm_0_split_2
I0314 16:27:12.519239  8828 net.cpp:150] Setting up conv4_norm_conv4_norm_0_split
I0314 16:27:12.519258  8828 net.cpp:157] Top shape: 8 128 69 69 (4875264)
I0314 16:27:12.519263  8828 net.cpp:157] Top shape: 8 128 69 69 (4875264)
I0314 16:27:12.519269  8828 net.cpp:157] Top shape: 8 128 69 69 (4875264)
I0314 16:27:12.519274  8828 net.cpp:165] Memory required for data: 2059025664
I0314 16:27:12.519280  8828 layer_factory.hpp:77] Creating layer conv4_norm_mbox_loc
I0314 16:27:12.519299  8828 net.cpp:100] Creating Layer conv4_norm_mbox_loc
I0314 16:27:12.519305  8828 net.cpp:434] conv4_norm_mbox_loc <- conv4_norm_conv4_norm_0_split_0
I0314 16:27:12.519323  8828 net.cpp:408] conv4_norm_mbox_loc -> conv4_norm_mbox_loc
I0314 16:27:12.521117  8828 net.cpp:150] Setting up conv4_norm_mbox_loc
I0314 16:27:12.521153  8828 net.cpp:157] Top shape: 8 16 69 69 (609408)
I0314 16:27:12.521160  8828 net.cpp:165] Memory required for data: 2061463296
I0314 16:27:12.521178  8828 layer_factory.hpp:77] Creating layer conv4_norm_mbox_loc_perm
I0314 16:27:12.521198  8828 net.cpp:100] Creating Layer conv4_norm_mbox_loc_perm
I0314 16:27:12.521204  8828 net.cpp:434] conv4_norm_mbox_loc_perm <- conv4_norm_mbox_loc
I0314 16:27:12.521220  8828 net.cpp:408] conv4_norm_mbox_loc_perm -> conv4_norm_mbox_loc_perm
I0314 16:27:12.521350  8828 net.cpp:150] Setting up conv4_norm_mbox_loc_perm
I0314 16:27:12.521361  8828 net.cpp:157] Top shape: 8 69 69 16 (609408)
I0314 16:27:12.521374  8828 net.cpp:165] Memory required for data: 2063900928
I0314 16:27:12.521380  8828 layer_factory.hpp:77] Creating layer conv4_norm_mbox_loc_flat
I0314 16:27:12.521394  8828 net.cpp:100] Creating Layer conv4_norm_mbox_loc_flat
I0314 16:27:12.521402  8828 net.cpp:434] conv4_norm_mbox_loc_flat <- conv4_norm_mbox_loc_perm
I0314 16:27:12.521410  8828 net.cpp:408] conv4_norm_mbox_loc_flat -> conv4_norm_mbox_loc_flat
I0314 16:27:12.521452  8828 net.cpp:150] Setting up conv4_norm_mbox_loc_flat
I0314 16:27:12.521471  8828 net.cpp:157] Top shape: 8 76176 (609408)
I0314 16:27:12.521476  8828 net.cpp:165] Memory required for data: 2066338560
I0314 16:27:12.521481  8828 layer_factory.hpp:77] Creating layer conv4_norm_mbox_conf
I0314 16:27:12.521502  8828 net.cpp:100] Creating Layer conv4_norm_mbox_conf
I0314 16:27:12.521507  8828 net.cpp:434] conv4_norm_mbox_conf <- conv4_norm_conv4_norm_0_split_1
I0314 16:27:12.521525  8828 net.cpp:408] conv4_norm_mbox_conf -> conv4_norm_mbox_conf
I0314 16:27:12.523383  8828 net.cpp:150] Setting up conv4_norm_mbox_conf
I0314 16:27:12.523418  8828 net.cpp:157] Top shape: 8 16 69 69 (609408)
I0314 16:27:12.523424  8828 net.cpp:165] Memory required for data: 2068776192
I0314 16:27:12.523442  8828 layer_factory.hpp:77] Creating layer conv4_norm_mbox_conf_perm
I0314 16:27:12.523461  8828 net.cpp:100] Creating Layer conv4_norm_mbox_conf_perm
I0314 16:27:12.523468  8828 net.cpp:434] conv4_norm_mbox_conf_perm <- conv4_norm_mbox_conf
I0314 16:27:12.523484  8828 net.cpp:408] conv4_norm_mbox_conf_perm -> conv4_norm_mbox_conf_perm
I0314 16:27:12.523619  8828 net.cpp:150] Setting up conv4_norm_mbox_conf_perm
I0314 16:27:12.523638  8828 net.cpp:157] Top shape: 8 69 69 16 (609408)
I0314 16:27:12.523644  8828 net.cpp:165] Memory required for data: 2071213824
I0314 16:27:12.523649  8828 layer_factory.hpp:77] Creating layer conv4_norm_mbox_conf_flat
I0314 16:27:12.523667  8828 net.cpp:100] Creating Layer conv4_norm_mbox_conf_flat
I0314 16:27:12.523674  8828 net.cpp:434] conv4_norm_mbox_conf_flat <- conv4_norm_mbox_conf_perm
I0314 16:27:12.523689  8828 net.cpp:408] conv4_norm_mbox_conf_flat -> conv4_norm_mbox_conf_flat
I0314 16:27:12.523730  8828 net.cpp:150] Setting up conv4_norm_mbox_conf_flat
I0314 16:27:12.523752  8828 net.cpp:157] Top shape: 8 76176 (609408)
I0314 16:27:12.523771  8828 net.cpp:165] Memory required for data: 2073651456
I0314 16:27:12.523777  8828 layer_factory.hpp:77] Creating layer conv4_norm_mbox_priorbox
I0314 16:27:12.523795  8828 net.cpp:100] Creating Layer conv4_norm_mbox_priorbox
I0314 16:27:12.523802  8828 net.cpp:434] conv4_norm_mbox_priorbox <- conv4_norm_conv4_norm_0_split_2
I0314 16:27:12.523809  8828 net.cpp:434] conv4_norm_mbox_priorbox <- data_data_0_split_2
I0314 16:27:12.523833  8828 net.cpp:408] conv4_norm_mbox_priorbox -> conv4_norm_mbox_priorbox
I0314 16:27:12.523874  8828 net.cpp:150] Setting up conv4_norm_mbox_priorbox
I0314 16:27:12.523891  8828 net.cpp:157] Top shape: 1 2 76176 (152352)
I0314 16:27:12.523897  8828 net.cpp:165] Memory required for data: 2074260864
I0314 16:27:12.523902  8828 layer_factory.hpp:77] Creating layer conv5_norm
I0314 16:27:12.523921  8828 net.cpp:100] Creating Layer conv5_norm
I0314 16:27:12.523926  8828 net.cpp:434] conv5_norm <- relu5_relu5_0_split_1
I0314 16:27:12.523942  8828 net.cpp:408] conv5_norm -> conv5_norm
I0314 16:27:12.524117  8828 net.cpp:150] Setting up conv5_norm
I0314 16:27:12.524137  8828 net.cpp:157] Top shape: 8 256 65 65 (8652800)
I0314 16:27:12.524142  8828 net.cpp:165] Memory required for data: 2108872064
I0314 16:27:12.524149  8828 layer_factory.hpp:77] Creating layer conv5_norm_conv5_norm_0_split
I0314 16:27:12.524173  8828 net.cpp:100] Creating Layer conv5_norm_conv5_norm_0_split
I0314 16:27:12.524178  8828 net.cpp:434] conv5_norm_conv5_norm_0_split <- conv5_norm
I0314 16:27:12.524194  8828 net.cpp:408] conv5_norm_conv5_norm_0_split -> conv5_norm_conv5_norm_0_split_0
I0314 16:27:12.524210  8828 net.cpp:408] conv5_norm_conv5_norm_0_split -> conv5_norm_conv5_norm_0_split_1
I0314 16:27:12.524227  8828 net.cpp:408] conv5_norm_conv5_norm_0_split -> conv5_norm_conv5_norm_0_split_2
I0314 16:27:12.524289  8828 net.cpp:150] Setting up conv5_norm_conv5_norm_0_split
I0314 16:27:12.524307  8828 net.cpp:157] Top shape: 8 256 65 65 (8652800)
I0314 16:27:12.524313  8828 net.cpp:157] Top shape: 8 256 65 65 (8652800)
I0314 16:27:12.524319  8828 net.cpp:157] Top shape: 8 256 65 65 (8652800)
I0314 16:27:12.524324  8828 net.cpp:165] Memory required for data: 2212705664
I0314 16:27:12.524329  8828 layer_factory.hpp:77] Creating layer conv5_norm_mbox_loc
I0314 16:27:12.524349  8828 net.cpp:100] Creating Layer conv5_norm_mbox_loc
I0314 16:27:12.524355  8828 net.cpp:434] conv5_norm_mbox_loc <- conv5_norm_conv5_norm_0_split_0
I0314 16:27:12.524374  8828 net.cpp:408] conv5_norm_mbox_loc -> conv5_norm_mbox_loc
I0314 16:27:12.526342  8828 net.cpp:150] Setting up conv5_norm_mbox_loc
I0314 16:27:12.526377  8828 net.cpp:157] Top shape: 8 16 65 65 (540800)
I0314 16:27:12.526383  8828 net.cpp:165] Memory required for data: 2214868864
I0314 16:27:12.526401  8828 layer_factory.hpp:77] Creating layer conv5_norm_mbox_loc_perm
I0314 16:27:12.526418  8828 net.cpp:100] Creating Layer conv5_norm_mbox_loc_perm
I0314 16:27:12.526425  8828 net.cpp:434] conv5_norm_mbox_loc_perm <- conv5_norm_mbox_loc
I0314 16:27:12.526443  8828 net.cpp:408] conv5_norm_mbox_loc_perm -> conv5_norm_mbox_loc_perm
I0314 16:27:12.526578  8828 net.cpp:150] Setting up conv5_norm_mbox_loc_perm
I0314 16:27:12.526597  8828 net.cpp:157] Top shape: 8 65 65 16 (540800)
I0314 16:27:12.526602  8828 net.cpp:165] Memory required for data: 2217032064
I0314 16:27:12.526607  8828 layer_factory.hpp:77] Creating layer conv5_norm_mbox_loc_flat
I0314 16:27:12.526623  8828 net.cpp:100] Creating Layer conv5_norm_mbox_loc_flat
I0314 16:27:12.526629  8828 net.cpp:434] conv5_norm_mbox_loc_flat <- conv5_norm_mbox_loc_perm
I0314 16:27:12.526648  8828 net.cpp:408] conv5_norm_mbox_loc_flat -> conv5_norm_mbox_loc_flat
I0314 16:27:12.526690  8828 net.cpp:150] Setting up conv5_norm_mbox_loc_flat
I0314 16:27:12.526707  8828 net.cpp:157] Top shape: 8 67600 (540800)
I0314 16:27:12.526712  8828 net.cpp:165] Memory required for data: 2219195264
I0314 16:27:12.526717  8828 layer_factory.hpp:77] Creating layer conv5_norm_mbox_conf
I0314 16:27:12.526758  8828 net.cpp:100] Creating Layer conv5_norm_mbox_conf
I0314 16:27:12.526765  8828 net.cpp:434] conv5_norm_mbox_conf <- conv5_norm_conv5_norm_0_split_1
I0314 16:27:12.526783  8828 net.cpp:408] conv5_norm_mbox_conf -> conv5_norm_mbox_conf
I0314 16:27:12.528770  8828 net.cpp:150] Setting up conv5_norm_mbox_conf
I0314 16:27:12.528800  8828 net.cpp:157] Top shape: 8 16 65 65 (540800)
I0314 16:27:12.528806  8828 net.cpp:165] Memory required for data: 2221358464
I0314 16:27:12.528825  8828 layer_factory.hpp:77] Creating layer conv5_norm_mbox_conf_perm
I0314 16:27:12.528842  8828 net.cpp:100] Creating Layer conv5_norm_mbox_conf_perm
I0314 16:27:12.528849  8828 net.cpp:434] conv5_norm_mbox_conf_perm <- conv5_norm_mbox_conf
I0314 16:27:12.528867  8828 net.cpp:408] conv5_norm_mbox_conf_perm -> conv5_norm_mbox_conf_perm
I0314 16:27:12.528977  8834 data_transformer.cpp:1068] INFER 3
I0314 16:27:12.529011  8834 annotated_data_layer.cpp:234] 8 3
I0314 16:27:12.529021  8834 annotated_data_layer.cpp:234] 3 3
I0314 16:27:12.528995  8828 net.cpp:150] Setting up conv5_norm_mbox_conf_perm
I0314 16:27:12.529038  8828 net.cpp:157] Top shape: 8 65 65 16 (540800)
I0314 16:27:12.529026  8834 annotated_data_layer.cpp:234] 300 3
I0314 16:27:12.529060  8834 annotated_data_layer.cpp:234] 300 3
I0314 16:27:12.529053  8828 net.cpp:165] Memory required for data: 2223521664
I0314 16:27:12.529088  8828 layer_factory.hpp:77] Creating layer conv5_norm_mbox_conf_flat
I0314 16:27:12.529109  8828 net.cpp:100] Creating Layer conv5_norm_mbox_conf_flat
I0314 16:27:12.529115  8828 net.cpp:434] conv5_norm_mbox_conf_flat <- conv5_norm_mbox_conf_perm
I0314 16:27:12.529131  8828 net.cpp:408] conv5_norm_mbox_conf_flat -> conv5_norm_mbox_conf_flat
I0314 16:27:12.529189  8828 net.cpp:150] Setting up conv5_norm_mbox_conf_flat
I0314 16:27:12.529209  8828 net.cpp:157] Top shape: 8 67600 (540800)
I0314 16:27:12.529214  8828 net.cpp:165] Memory required for data: 2225684864
I0314 16:27:12.529219  8828 layer_factory.hpp:77] Creating layer conv5_norm_mbox_priorbox
I0314 16:27:12.529237  8828 net.cpp:100] Creating Layer conv5_norm_mbox_priorbox
I0314 16:27:12.529242  8828 net.cpp:434] conv5_norm_mbox_priorbox <- conv5_norm_conv5_norm_0_split_2
I0314 16:27:12.529249  8828 net.cpp:434] conv5_norm_mbox_priorbox <- data_data_0_split_3
I0314 16:27:12.529266  8828 net.cpp:408] conv5_norm_mbox_priorbox -> conv5_norm_mbox_priorbox
I0314 16:27:12.529309  8828 net.cpp:150] Setting up conv5_norm_mbox_priorbox
I0314 16:27:12.529326  8828 net.cpp:157] Top shape: 1 2 67600 (135200)
I0314 16:27:12.529331  8828 net.cpp:165] Memory required for data: 2226225664
I0314 16:27:12.529336  8828 layer_factory.hpp:77] Creating layer conv6_norm
I0314 16:27:12.529355  8828 net.cpp:100] Creating Layer conv6_norm
I0314 16:27:12.529361  8828 net.cpp:434] conv6_norm <- pool6_pool6_0_split_1
I0314 16:27:12.529377  8828 net.cpp:408] conv6_norm -> conv6_norm
I0314 16:27:12.529553  8828 net.cpp:150] Setting up conv6_norm
I0314 16:27:12.529572  8828 net.cpp:157] Top shape: 8 256 31 31 (1968128)
I0314 16:27:12.529577  8828 net.cpp:165] Memory required for data: 2234098176
I0314 16:27:12.529583  8828 layer_factory.hpp:77] Creating layer conv6_norm_conv6_norm_0_split
I0314 16:27:12.529598  8828 net.cpp:100] Creating Layer conv6_norm_conv6_norm_0_split
I0314 16:27:12.529604  8828 net.cpp:434] conv6_norm_conv6_norm_0_split <- conv6_norm
I0314 16:27:12.529623  8828 net.cpp:408] conv6_norm_conv6_norm_0_split -> conv6_norm_conv6_norm_0_split_0
I0314 16:27:12.529640  8828 net.cpp:408] conv6_norm_conv6_norm_0_split -> conv6_norm_conv6_norm_0_split_1
I0314 16:27:12.529659  8828 net.cpp:408] conv6_norm_conv6_norm_0_split -> conv6_norm_conv6_norm_0_split_2
I0314 16:27:12.529722  8828 net.cpp:150] Setting up conv6_norm_conv6_norm_0_split
I0314 16:27:12.529739  8828 net.cpp:157] Top shape: 8 256 31 31 (1968128)
I0314 16:27:12.529745  8828 net.cpp:157] Top shape: 8 256 31 31 (1968128)
I0314 16:27:12.529752  8828 net.cpp:157] Top shape: 8 256 31 31 (1968128)
I0314 16:27:12.529770  8828 net.cpp:165] Memory required for data: 2257715712
I0314 16:27:12.529790  8828 layer_factory.hpp:77] Creating layer conv6_norm_mbox_loc
I0314 16:27:12.529814  8828 net.cpp:100] Creating Layer conv6_norm_mbox_loc
I0314 16:27:12.529820  8828 net.cpp:434] conv6_norm_mbox_loc <- conv6_norm_conv6_norm_0_split_0
I0314 16:27:12.529839  8828 net.cpp:408] conv6_norm_mbox_loc -> conv6_norm_mbox_loc
I0314 16:27:12.532239  8828 net.cpp:150] Setting up conv6_norm_mbox_loc
I0314 16:27:12.532276  8828 net.cpp:157] Top shape: 8 16 31 31 (123008)
I0314 16:27:12.532282  8828 net.cpp:165] Memory required for data: 2258207744
I0314 16:27:12.532299  8828 layer_factory.hpp:77] Creating layer conv6_norm_mbox_loc_perm
I0314 16:27:12.532317  8828 net.cpp:100] Creating Layer conv6_norm_mbox_loc_perm
I0314 16:27:12.532325  8828 net.cpp:434] conv6_norm_mbox_loc_perm <- conv6_norm_mbox_loc
I0314 16:27:12.532343  8828 net.cpp:408] conv6_norm_mbox_loc_perm -> conv6_norm_mbox_loc_perm
I0314 16:27:12.532480  8828 net.cpp:150] Setting up conv6_norm_mbox_loc_perm
I0314 16:27:12.532500  8828 net.cpp:157] Top shape: 8 31 31 16 (123008)
I0314 16:27:12.532505  8828 net.cpp:165] Memory required for data: 2258699776
I0314 16:27:12.532510  8828 layer_factory.hpp:77] Creating layer conv6_norm_mbox_loc_flat
I0314 16:27:12.532527  8828 net.cpp:100] Creating Layer conv6_norm_mbox_loc_flat
I0314 16:27:12.532533  8828 net.cpp:434] conv6_norm_mbox_loc_flat <- conv6_norm_mbox_loc_perm
I0314 16:27:12.532552  8828 net.cpp:408] conv6_norm_mbox_loc_flat -> conv6_norm_mbox_loc_flat
I0314 16:27:12.532593  8828 net.cpp:150] Setting up conv6_norm_mbox_loc_flat
I0314 16:27:12.532611  8828 net.cpp:157] Top shape: 8 15376 (123008)
I0314 16:27:12.532616  8828 net.cpp:165] Memory required for data: 2259191808
I0314 16:27:12.532621  8828 layer_factory.hpp:77] Creating layer conv6_norm_mbox_conf
I0314 16:27:12.532642  8828 net.cpp:100] Creating Layer conv6_norm_mbox_conf
I0314 16:27:12.532649  8828 net.cpp:434] conv6_norm_mbox_conf <- conv6_norm_conv6_norm_0_split_1
I0314 16:27:12.532667  8828 net.cpp:408] conv6_norm_mbox_conf -> conv6_norm_mbox_conf
I0314 16:27:12.534605  8828 net.cpp:150] Setting up conv6_norm_mbox_conf
I0314 16:27:12.534641  8828 net.cpp:157] Top shape: 8 16 31 31 (123008)
I0314 16:27:12.534646  8828 net.cpp:165] Memory required for data: 2259683840
I0314 16:27:12.534672  8828 layer_factory.hpp:77] Creating layer conv6_norm_mbox_conf_perm
I0314 16:27:12.534682  8828 net.cpp:100] Creating Layer conv6_norm_mbox_conf_perm
I0314 16:27:12.534688  8828 net.cpp:434] conv6_norm_mbox_conf_perm <- conv6_norm_mbox_conf
I0314 16:27:12.534706  8828 net.cpp:408] conv6_norm_mbox_conf_perm -> conv6_norm_mbox_conf_perm
I0314 16:27:12.534842  8828 net.cpp:150] Setting up conv6_norm_mbox_conf_perm
I0314 16:27:12.534853  8828 net.cpp:157] Top shape: 8 31 31 16 (123008)
I0314 16:27:12.534869  8828 net.cpp:165] Memory required for data: 2260175872
I0314 16:27:12.534875  8828 layer_factory.hpp:77] Creating layer conv6_norm_mbox_conf_flat
I0314 16:27:12.534886  8828 net.cpp:100] Creating Layer conv6_norm_mbox_conf_flat
I0314 16:27:12.534893  8828 net.cpp:434] conv6_norm_mbox_conf_flat <- conv6_norm_mbox_conf_perm
I0314 16:27:12.534903  8828 net.cpp:408] conv6_norm_mbox_conf_flat -> conv6_norm_mbox_conf_flat
I0314 16:27:12.534945  8828 net.cpp:150] Setting up conv6_norm_mbox_conf_flat
I0314 16:27:12.534961  8828 net.cpp:157] Top shape: 8 15376 (123008)
I0314 16:27:12.534966  8828 net.cpp:165] Memory required for data: 2260667904
I0314 16:27:12.534972  8828 layer_factory.hpp:77] Creating layer conv6_norm_mbox_priorbox
I0314 16:27:12.534991  8828 net.cpp:100] Creating Layer conv6_norm_mbox_priorbox
I0314 16:27:12.534997  8828 net.cpp:434] conv6_norm_mbox_priorbox <- conv6_norm_conv6_norm_0_split_2
I0314 16:27:12.535004  8828 net.cpp:434] conv6_norm_mbox_priorbox <- data_data_0_split_4
I0314 16:27:12.535030  8828 net.cpp:408] conv6_norm_mbox_priorbox -> conv6_norm_mbox_priorbox
I0314 16:27:12.535073  8828 net.cpp:150] Setting up conv6_norm_mbox_priorbox
I0314 16:27:12.535089  8828 net.cpp:157] Top shape: 1 2 15376 (30752)
I0314 16:27:12.535122  8828 net.cpp:165] Memory required for data: 2260790912
I0314 16:27:12.535127  8828 layer_factory.hpp:77] Creating layer conv7_norm
I0314 16:27:12.535143  8828 net.cpp:100] Creating Layer conv7_norm
I0314 16:27:12.535151  8828 net.cpp:434] conv7_norm <- relu7
I0314 16:27:12.535166  8828 net.cpp:408] conv7_norm -> conv7_norm
I0314 16:27:12.535341  8828 net.cpp:150] Setting up conv7_norm
I0314 16:27:12.535360  8828 net.cpp:157] Top shape: 8 128 27 27 (746496)
I0314 16:27:12.535365  8828 net.cpp:165] Memory required for data: 2263776896
I0314 16:27:12.535372  8828 layer_factory.hpp:77] Creating layer conv7_norm_conv7_norm_0_split
I0314 16:27:12.535400  8828 net.cpp:100] Creating Layer conv7_norm_conv7_norm_0_split
I0314 16:27:12.535406  8828 net.cpp:434] conv7_norm_conv7_norm_0_split <- conv7_norm
I0314 16:27:12.535421  8828 net.cpp:408] conv7_norm_conv7_norm_0_split -> conv7_norm_conv7_norm_0_split_0
I0314 16:27:12.535439  8828 net.cpp:408] conv7_norm_conv7_norm_0_split -> conv7_norm_conv7_norm_0_split_1
I0314 16:27:12.535456  8828 net.cpp:408] conv7_norm_conv7_norm_0_split -> conv7_norm_conv7_norm_0_split_2
I0314 16:27:12.535521  8828 net.cpp:150] Setting up conv7_norm_conv7_norm_0_split
I0314 16:27:12.535531  8828 net.cpp:157] Top shape: 8 128 27 27 (746496)
I0314 16:27:12.535537  8828 net.cpp:157] Top shape: 8 128 27 27 (746496)
I0314 16:27:12.535543  8828 net.cpp:157] Top shape: 8 128 27 27 (746496)
I0314 16:27:12.535548  8828 net.cpp:165] Memory required for data: 2272734848
I0314 16:27:12.535553  8828 layer_factory.hpp:77] Creating layer conv7_norm_mbox_loc
I0314 16:27:12.535573  8828 net.cpp:100] Creating Layer conv7_norm_mbox_loc
I0314 16:27:12.535578  8828 net.cpp:434] conv7_norm_mbox_loc <- conv7_norm_conv7_norm_0_split_0
I0314 16:27:12.535598  8828 net.cpp:408] conv7_norm_mbox_loc -> conv7_norm_mbox_loc
I0314 16:27:12.537443  8828 net.cpp:150] Setting up conv7_norm_mbox_loc
I0314 16:27:12.537479  8828 net.cpp:157] Top shape: 8 16 27 27 (93312)
I0314 16:27:12.537487  8828 net.cpp:165] Memory required for data: 2273108096
I0314 16:27:12.537503  8828 layer_factory.hpp:77] Creating layer conv7_norm_mbox_loc_perm
I0314 16:27:12.537521  8828 net.cpp:100] Creating Layer conv7_norm_mbox_loc_perm
I0314 16:27:12.537528  8828 net.cpp:434] conv7_norm_mbox_loc_perm <- conv7_norm_mbox_loc
I0314 16:27:12.537545  8828 net.cpp:408] conv7_norm_mbox_loc_perm -> conv7_norm_mbox_loc_perm
I0314 16:27:12.537680  8828 net.cpp:150] Setting up conv7_norm_mbox_loc_perm
I0314 16:27:12.537698  8828 net.cpp:157] Top shape: 8 27 27 16 (93312)
I0314 16:27:12.537703  8828 net.cpp:165] Memory required for data: 2273481344
I0314 16:27:12.537708  8828 layer_factory.hpp:77] Creating layer conv7_norm_mbox_loc_flat
I0314 16:27:12.537725  8828 net.cpp:100] Creating Layer conv7_norm_mbox_loc_flat
I0314 16:27:12.537731  8828 net.cpp:434] conv7_norm_mbox_loc_flat <- conv7_norm_mbox_loc_perm
I0314 16:27:12.537748  8828 net.cpp:408] conv7_norm_mbox_loc_flat -> conv7_norm_mbox_loc_flat
I0314 16:27:12.537787  8828 net.cpp:150] Setting up conv7_norm_mbox_loc_flat
I0314 16:27:12.537814  8828 net.cpp:157] Top shape: 8 11664 (93312)
I0314 16:27:12.537819  8828 net.cpp:165] Memory required for data: 2273854592
I0314 16:27:12.537825  8828 layer_factory.hpp:77] Creating layer conv7_norm_mbox_conf
I0314 16:27:12.537855  8828 net.cpp:100] Creating Layer conv7_norm_mbox_conf
I0314 16:27:12.537863  8828 net.cpp:434] conv7_norm_mbox_conf <- conv7_norm_conv7_norm_0_split_1
I0314 16:27:12.537878  8828 net.cpp:408] conv7_norm_mbox_conf -> conv7_norm_mbox_conf
I0314 16:27:12.539765  8828 net.cpp:150] Setting up conv7_norm_mbox_conf
I0314 16:27:12.539793  8828 net.cpp:157] Top shape: 8 16 27 27 (93312)
I0314 16:27:12.539799  8828 net.cpp:165] Memory required for data: 2274227840
I0314 16:27:12.539818  8828 layer_factory.hpp:77] Creating layer conv7_norm_mbox_conf_perm
I0314 16:27:12.539834  8828 net.cpp:100] Creating Layer conv7_norm_mbox_conf_perm
I0314 16:27:12.539840  8828 net.cpp:434] conv7_norm_mbox_conf_perm <- conv7_norm_mbox_conf
I0314 16:27:12.539865  8828 net.cpp:408] conv7_norm_mbox_conf_perm -> conv7_norm_mbox_conf_perm
I0314 16:27:12.540017  8828 net.cpp:150] Setting up conv7_norm_mbox_conf_perm
I0314 16:27:12.540035  8828 net.cpp:157] Top shape: 8 27 27 16 (93312)
I0314 16:27:12.540041  8828 net.cpp:165] Memory required for data: 2274601088
I0314 16:27:12.540046  8828 layer_factory.hpp:77] Creating layer conv7_norm_mbox_conf_flat
I0314 16:27:12.540062  8828 net.cpp:100] Creating Layer conv7_norm_mbox_conf_flat
I0314 16:27:12.540069  8828 net.cpp:434] conv7_norm_mbox_conf_flat <- conv7_norm_mbox_conf_perm
I0314 16:27:12.540088  8828 net.cpp:408] conv7_norm_mbox_conf_flat -> conv7_norm_mbox_conf_flat
I0314 16:27:12.540129  8828 net.cpp:150] Setting up conv7_norm_mbox_conf_flat
I0314 16:27:12.540148  8828 net.cpp:157] Top shape: 8 11664 (93312)
I0314 16:27:12.540153  8828 net.cpp:165] Memory required for data: 2274974336
I0314 16:27:12.540158  8828 layer_factory.hpp:77] Creating layer conv7_norm_mbox_priorbox
I0314 16:27:12.540174  8828 net.cpp:100] Creating Layer conv7_norm_mbox_priorbox
I0314 16:27:12.540180  8828 net.cpp:434] conv7_norm_mbox_priorbox <- conv7_norm_conv7_norm_0_split_2
I0314 16:27:12.540187  8828 net.cpp:434] conv7_norm_mbox_priorbox <- data_data_0_split_5
I0314 16:27:12.540205  8828 net.cpp:408] conv7_norm_mbox_priorbox -> conv7_norm_mbox_priorbox
I0314 16:27:12.540247  8828 net.cpp:150] Setting up conv7_norm_mbox_priorbox
I0314 16:27:12.540264  8828 net.cpp:157] Top shape: 1 2 11664 (23328)
I0314 16:27:12.540271  8828 net.cpp:165] Memory required for data: 2275067648
I0314 16:27:12.540275  8828 layer_factory.hpp:77] Creating layer mbox_loc
I0314 16:27:12.540284  8828 net.cpp:100] Creating Layer mbox_loc
I0314 16:27:12.540290  8828 net.cpp:434] mbox_loc <- conv3_norm_mbox_loc_flat
I0314 16:27:12.540305  8828 net.cpp:434] mbox_loc <- conv4_norm_mbox_loc_flat
I0314 16:27:12.540313  8828 net.cpp:434] mbox_loc <- conv5_norm_mbox_loc_flat
I0314 16:27:12.540318  8828 net.cpp:434] mbox_loc <- conv6_norm_mbox_loc_flat
I0314 16:27:12.540324  8828 net.cpp:434] mbox_loc <- conv7_norm_mbox_loc_flat
I0314 16:27:12.540343  8828 net.cpp:408] mbox_loc -> mbox_loc
I0314 16:27:12.540386  8828 net.cpp:150] Setting up mbox_loc
I0314 16:27:12.540405  8828 net.cpp:157] Top shape: 8 493440 (3947520)
I0314 16:27:12.540410  8828 net.cpp:165] Memory required for data: 2290857728
I0314 16:27:12.540416  8828 layer_factory.hpp:77] Creating layer mbox_conf
I0314 16:27:12.540422  8828 net.cpp:100] Creating Layer mbox_conf
I0314 16:27:12.540436  8828 net.cpp:434] mbox_conf <- conv3_norm_mbox_conf_flat
I0314 16:27:12.540443  8828 net.cpp:434] mbox_conf <- conv4_norm_mbox_conf_flat
I0314 16:27:12.540449  8828 net.cpp:434] mbox_conf <- conv5_norm_mbox_conf_flat
I0314 16:27:12.540457  8828 net.cpp:434] mbox_conf <- conv6_norm_mbox_conf_flat
I0314 16:27:12.540462  8828 net.cpp:434] mbox_conf <- conv7_norm_mbox_conf_flat
I0314 16:27:12.540477  8828 net.cpp:408] mbox_conf -> mbox_conf
I0314 16:27:12.540515  8828 net.cpp:150] Setting up mbox_conf
I0314 16:27:12.540534  8828 net.cpp:157] Top shape: 8 493440 (3947520)
I0314 16:27:12.540539  8828 net.cpp:165] Memory required for data: 2306647808
I0314 16:27:12.540544  8828 layer_factory.hpp:77] Creating layer mbox_priorbox
I0314 16:27:12.540558  8828 net.cpp:100] Creating Layer mbox_priorbox
I0314 16:27:12.540565  8828 net.cpp:434] mbox_priorbox <- conv3_norm_mbox_priorbox
I0314 16:27:12.540570  8828 net.cpp:434] mbox_priorbox <- conv4_norm_mbox_priorbox
I0314 16:27:12.540577  8828 net.cpp:434] mbox_priorbox <- conv5_norm_mbox_priorbox
I0314 16:27:12.540583  8828 net.cpp:434] mbox_priorbox <- conv6_norm_mbox_priorbox
I0314 16:27:12.540590  8828 net.cpp:434] mbox_priorbox <- conv7_norm_mbox_priorbox
I0314 16:27:12.540603  8828 net.cpp:408] mbox_priorbox -> mbox_priorbox
I0314 16:27:12.540642  8828 net.cpp:150] Setting up mbox_priorbox
I0314 16:27:12.540660  8828 net.cpp:157] Top shape: 1 2 493440 (986880)
I0314 16:27:12.540665  8828 net.cpp:165] Memory required for data: 2310595328
I0314 16:27:12.540675  8828 layer_factory.hpp:77] Creating layer mbox_loss
I0314 16:27:12.540712  8828 net.cpp:100] Creating Layer mbox_loss
I0314 16:27:12.540719  8828 net.cpp:434] mbox_loss <- mbox_loc
I0314 16:27:12.540725  8828 net.cpp:434] mbox_loss <- mbox_conf
I0314 16:27:12.540731  8828 net.cpp:434] mbox_loss <- mbox_priorbox
…
        min_scale: 0.3
        max_scale: 1
        min_aspect_ratio: 0.5
        max_aspect_ratio: 2
      }
      sample_constraint {
        min_jaccard_overlap: 0.9
      }
      max_sample: 1
      max_trials: 50
    }
    batch_sampler {
      sampler {
        min_scale: 0.3
        max_scale: 1
        min_aspect_ratio: 0.5
        max_aspect_ratio: 2
      }
      sample_constraint {
        max_jaccard_overlap: 1
      }
      max_sample: 1
      max_trials: 50
    }
    label_map_file: "/home/styurin/Diploma/lmdb/label_map_s.prototxt"
  }
}
layer {
  name: "conv1"
  type: "Convolution"
  bottom: "data"
  top: "conv1"
  param {
    lr_mult: 0
  }
  param {
    lr_mult: 0
  }
  convolution_param {
    num_output: 64
    kernel_size: 5
    stride: 1
    weight_filler {
      type: "xavier"
    }
  }
}
layer {
  name: "relu1"
  type: "ReLU"
  bottom: "conv1"
  top: "relu1"
}
layer {
  name: "conv2"
  type: "Convolution"
  bottom: "relu1"
  top: "conv2"
  param {
    lr_mult: 0
  }
  param {
    lr_mult: 0
  }
  convolution_param {
    num_output: 64
    kernel_size: 5
    stride: 1
    weight_filler {
      type: "xavier"
    }
  }
}
layer {
  name: "relu2"
  type: "ReLU"
  bottom: "conv2"
  top: "relu2"
}
layer {
  name: "pool2"
  type: "Pooling"
  bottom: "relu2"
  top: "pool2"
  pooling_param {
    pool: MAX
    kernel_size: 3
    stride: 2
  }
}
layer {
  name: "conv3"
  type: "Convolution"
  bottom: "pool2"
  top: "conv3"
  param {
    lr_mult: 0
  }
  param {
    lr_mult: 0
  }
  convolution_param {
    num_output: 128
    kernel_size: 5
    stride: 1
    weight_filler {
      type: "xavier"
    }
  }
}
layer {
  name: "relu3"
  type: "ReLU"
  bottom: "conv3"
  top: "relu3"
}
layer {
  name: "conv4"
  type: "Convolution"
  bottom: "relu3"
  top: "conv4"
  param {
    lr_mult: 0
  }
  param {
    lr_mult: 0
  }
  convolution_param {
    num_output: 128
    kernel_size: 5
    stride: 1
    weight_filler {
      type: "xavier"
    }
  }
}
layer {
  name: "relu4"
  type: "ReLU"
  bottom: "conv4"
  top: "relu4"
}
layer {
  name: "pool4"
  type: "Pooling"
  bottom: "relu4"
  top: "pool4"
  pooling_param {
    pool: MAX
    kernel_size: 3
    stride: 2
  }
}
layer {
  name: "conv5"
  type: "Convolution"
  bottom: "pool4"
  top: "conv5"
  param {
    lr_mult: 0
  }
  param {
    lr_mult: 0
  }
  convolution_param {
    num_output: 256
    kernel_size: 5
    stride: 1
    weight_filler {
      type: "xavier"
    }
  }
}
layer {
  name: "relu5"
  type: "ReLU"
  bottom: "conv5"
  top: "relu5"
}
layer {
  name: "conv6"
  type: "Convolution"
  bottom: "relu5"
  top: "conv6"
  param {
    lr_mult: 0
  }
  param {
    lr_mult: 0
  }
  convolution_param {
    num_output: 256
    kernel_size: 5
    stride: 1
    weight_filler {
      type: "xavier"
    }
  }
}
layer {
  name: "relu6"
  type: "ReLU"
  bottom: "conv6"
  top: "relu6"
}
layer {
  name: "pool6"
  type: "Pooling"
  bottom: "relu6"
  top: "pool6"
  pooling_param {
    pool: MAX
    kernel_size: 2
    stride: 2
  }
}
layer {
  name: "conv7"
  type: "Convolution"
  bottom: "pool6"
  top: "conv7"
  param {
    lr_mult: 0
  }
  param {
    lr_mult: 0
  }
  convolution_param {
    num_output: 128
    kernel_size: 5
    stride: 1
    weight_filler {
      type: "xavier"
    }
  }
}
layer {
  name: "relu7"
  type: "ReLU"
  bottom: "conv7"
  top: "relu7"
}
layer {
  name: "conv3_norm"
  type: "Normalize"
  bottom: "relu3"
  top: "conv3_norm"
  norm_param {
    across_spatial: false
    scale_filler {
      type: "constant"
      value: 20
    }
    channel_shared: false
  }
}
layer {
  name: "conv3_norm_mbox_loc"
  type: "Convolution"
  bottom: "conv3_norm"
  top: "conv3_norm_mbox_loc"
  param {
    lr_mult: 1
    decay_mult: 1
  }
  param {
    lr_mult: 2
    decay_mult: 0
  }
  convolution_param {
    num_output: 16
    pad: 1
    kernel_size: 3
    stride: 1
    weight_filler {
      type: "xavier"
    }
    bias_filler {
      type: "constant"
      value: 0
    }
  }
}
layer {
  name: "conv3_norm_mbox_loc_perm"
  type: "Permute"
  bottom: "conv3_norm_mbox_loc"
  top: "conv3_norm_mbox_loc_perm"
  permute_param {
    order: 0
    order: 2
    order: 3
    order: 1
  }
}
layer {
  name: "conv3_norm_mbox_loc_flat"
  type: "Flatten"
  bottom: "conv3_norm_mbox_loc_perm"
  top: "conv3_norm_mbox_loc_flat"
  flatten_param {
    axis: 1
  }
}
layer {
  name: "conv3_norm_mbox_conf"
  type: "Convolution"
  bottom: "conv3_norm"
  top: "conv3_norm_mbox_conf"
  param {
    lr_mult: 1
    decay_mult: 1
  }
  param {
    lr_mult: 2
    decay_mult: 0
  }
  convolution_param {
    num_output: 16
    pad: 1
    kernel_size: 3
    stride: 1
    weight_filler {
      type: "xavier"
    }
    bias_filler {
      type: "constant"
      value: 0
    }
  }
}
layer {
  name: "conv3_norm_mbox_conf_perm"
  type: "Permute"
  bottom: "conv3_norm_mbox_conf"
  top: "conv3_norm_mbox_conf_perm"
  permute_param {
    order: 0
    order: 2
    order: 3
    order: 1
  }
}
layer {
  name: "conv3_norm_mbox_conf_flat"
  type: "Flatten"
  bottom: "conv3_norm_mbox_conf_perm"
  top: "conv3_norm_mbox_conf_flat"
  flatten_param {
    axis: 1
  }
}
layer {
  name: "conv3_norm_mbox_priorbox"
  type: "PriorBox"
  bottom: "conv3_norm"
  bottom: "data"
  top: "conv3_norm_mbox_priorbox"
  prior_box_param {
    min_size: 30
    max_size: 60
    aspect_ratio: 2
    flip: true
    clip: false
    variance: 0.1
    variance: 0.1
    variance: 0.2
    variance: 0.2
    step: 8
    offset: 0.5
  }
}
layer {
  name: "conv4_norm"
  type: "Normalize"
  bottom: "pool4"
  top: "conv4_norm"
  norm_param {
    across_spatial: false
    scale_filler {
      type: "constant"
      value: 20
    }
    channel_shared: false
  }
}
layer {
  name: "conv4_norm_mbox_loc"
  type: "Convolution"
  bottom: "conv4_norm"
  top: "conv4_norm_mbox_loc"
  param {
    lr_mult: 1
    decay_mult: 1
  }
  param {
    lr_mult: 2
    decay_mult: 0
  }
  convolution_param {
    num_output: 16
    pad: 1
    kernel_size: 3
    stride: 1
    weight_filler {
      type: "xavier"
    }
    bias_filler {
      type: "constant"
      value: 0
    }
  }
}
layer {
  name: "conv4_norm_mbox_loc_perm"
  type: "Permute"
  bottom: "conv4_norm_mbox_loc"
  top: "conv4_norm_mbox_loc_perm"
  permute_param {
    order: 0
    order: 2
    order: 3
    order: 1
  }
}
layer {
  name: "conv4_norm_mbox_loc_flat"
  type: "Flatten"
  bottom: "conv4_norm_mbox_loc_perm"
  top: "conv4_norm_mbox_loc_flat"
  flatten_param {
    axis: 1
  }
}
layer {
  name: "conv4_norm_mbox_conf"
  type: "Convolution"
  bottom: "conv4_norm"
  top: "conv4_norm_mbox_conf"
  param {
    lr_mult: 1
    decay_mult: 1
  }
  param {
    lr_mult: 2
    decay_mult: 0
  }
  convolution_param {
    num_output: 16
    pad: 1
    kernel_size: 3
    stride: 1
    weight_filler {
      type: "xavier"
    }
    bias_filler {
      type: "constant"
      value: 0
    }
  }
}
layer {
  name: "conv4_norm_mbox_conf_perm"
  type: "Permute"
  bottom: "conv4_norm_mbox_conf"
  top: "conv4_norm_mbox_conf_perm"
  permute_param {
    order: 0
    order: 2
    order: 3
    order: 1
  }
}
layer {
  name: "conv4_norm_mbox_conf_flat"
  type: "Flatten"
  bottom: "conv4_norm_mbox_conf_perm"
  top: "conv4_norm_mbox_conf_flat"
  flatten_param {
    axis: 1
  }
}
layer {
  name: "conv4_norm_mbox_priorbox"
  type: "PriorBox"
  bottom: "conv4_norm"
  bottom: "data"
  top: "conv4_norm_mbox_priorbox"
  prior_box_param {
    min_size: 30
    max_size: 60
    aspect_ratio: 2
    flip: true
    clip: false
    variance: 0.1
    variance: 0.1
    variance: 0.2
    variance: 0.2
    step: 8
    offset: 0.5
  }
}
layer {
  name: "conv5_norm"
  type: "Normalize"
  bottom: "relu5"
  top: "conv5_norm"
  norm_param {
    across_spatial: false
    scale_filler {
      type: "constant"
      value: 20
    }
    channel_shared: false
  }
}
layer {
  name: "conv5_norm_mbox_loc"
  type: "Convolution"
  bottom: "conv5_norm"
  top: "conv5_norm_mbox_loc"
  param {
    lr_mult: 1
    decay_mult: 1
  }
  param {
    lr_mult: 2
    decay_mult: 0
  }
  convolution_param {
    num_output: 16
    pad: 1
    kernel_size: 3
    stride: 1
    weight_filler {
      type: "xavier"
    }
    bias_filler {
      type: "constant"
      value: 0
    }
  }
}
layer {
  name: "conv5_norm_mbox_loc_perm"
  type: "Permute"
  bottom: "conv5_norm_mbox_loc"
  top: "conv5_norm_mbox_loc_perm"
  permute_param {
    order: 0
    order: 2
    order: 3
    order: 1
  }
}
layer {
  name: "conv5_norm_mbox_loc_flat"
  type: "Flatten"
  bottom: "conv5_norm_mbox_loc_perm"
  top: "conv5_norm_mbox_loc_flat"
  flatten_param {
    axis: 1
  }
}
layer {
  name: "conv5_norm_mbox_conf"
  type: "Convolution"
  bottom: "conv5_norm"
  top: "conv5_norm_mbox_conf"
  param {
    lr_mult: 1
    decay_mult: 1
  }
  param {
    lr_mult: 2
    decay_mult: 0
  }
  convolution_param {
    num_output: 16
    pad: 1
    kernel_size: 3
    stride: 1
    weight_filler {
      type: "xavier"
    }
    bias_filler {
      type: "constant"
      value: 0
    }
  }
}
layer {
  name: "conv5_norm_mbox_conf_perm"
  type: "Permute"
  bottom: "conv5_norm_mbox_conf"
  top: "conv5_norm_mbox_conf_perm"
  permute_param {
    order: 0
    order: 2
    order: 3
    order: 1
  }
}
layer {
  name: "conv5_norm_mbox_conf_flat"
  type: "Flatten"
  bottom: "conv5_norm_mbox_conf_perm"
  top: "conv5_norm_mbox_conf_flat"
  flatten_param {
    axis: 1
  }
}
layer {
  name: "conv5_norm_mbox_priorbox"
  type: "PriorBox"
  bottom: "conv5_norm"
  bottom: "data"
  top: "conv5_norm_mbox_priorbox"
  prior_box_param {
    min_size: 30
    max_size: 60
    aspect_ratio: 2
    flip: true
    clip: false
    variance: 0.1
    variance: 0.1
    variance: 0.2
    variance: 0.2
    step: 8
    offset: 0.5
  }
}
layer {
  name: "conv6_norm"
  type: "Normalize"
  bottom: "pool6"
  top: "conv6_norm"
  norm_param {
    across_spatial: false
    scale_filler {
      type: "constant"
      value: 20
    }
    channel_shared: false
  }
}
layer {
  name: "conv6_norm_mbox_loc"
  type: "Convolution"
  bottom: "conv6_norm"
  top: "conv6_norm_mbox_loc"
  param {
    lr_mult: 1
    decay_mult: 1
  }
  param {
    lr_mult: 2
    decay_mult: 0
  }
  convolution_param {
    num_output: 16
    pad: 1
    kernel_size: 3
    stride: 1
    weight_filler {
      type: "xavier"
    }
    bias_filler {
      type: "constant"
      value: 0
    }
  }
}
layer {
  name: "conv6_norm_mbox_loc_perm"
  type: "Permute"
  bottom: "conv6_norm_mbox_loc"
  top: "conv6_norm_mbox_loc_perm"
  permute_param {
    order: 0
    order: 2
    order: 3
    order: 1
  }
}
layer {
  name: "conv6_norm_mbox_loc_flat"
  type: "Flatten"
  bottom: "conv6_norm_mbox_loc_perm"
  top: "conv6_norm_mbox_loc_flat"
  flatten_param {
    axis: 1
  }
}
layer {
  name: "conv6_norm_mbox_conf"
  type: "Convolution"
  bottom: "conv6_norm"
  top: "conv6_norm_mbox_conf"
  param {
    lr_mult: 1
    decay_mult: 1
  }
  param {
    lr_mult: 2
    decay_mult: 0
  }
  convolution_param {
    num_output: 16
    pad: 1
    kernel_size: 3
    stride: 1
    weight_filler {
      type: "xavier"
    }
    bias_filler {
      type: "constant"
      value: 0
    }
  }
}
layer {
  name: "conv6_norm_mbox_conf_perm"
  type: "Permute"
  bottom: "conv6_norm_mbox_conf"
  top: "conv6_norm_mbox_conf_perm"
  permute_param {
    order: 0
    order: 2
    order: 3
    order: 1
  }
}
layer {
  name: "conv6_norm_mbox_conf_flat"
  type: "Flatten"
  bottom: "conv6_norm_mbox_conf_perm"
  top: "conv6_norm_mbox_conf_flat"
  flatten_param {
    axis: 1
  }
}
layer {
  name: "conv6_norm_mbox_priorbox"
  type: "PriorBox"
  bottom: "conv6_norm"
  bottom: "data"
  top: "conv6_norm_mbox_priorbox"
  prior_box_param {
    min_size: 30
    max_size: 60
    aspect_ratio: 2
    flip: true
    clip: false
    variance: 0.1
    variance: 0.1
    variance: 0.2
    variance: 0.2
    step: 8
    offset: 0.5
  }
}
layer {
  name: "conv7_norm"
  type: "Normalize"
  bottom: "relu7"
  top: "conv7_norm"
  norm_param {
    across_spatial: false
    scale_filler {
      type: "constant"
      value: 20
    }
    channel_shared: false
  }
}
layer {
  name: "conv7_norm_mbox_loc"
  type: "Convolution"
  bottom: "conv7_norm"
  top: "conv7_norm_mbox_loc"
  param {
    lr_mult: 1
    decay_mult: 1
  }
  param {
    lr_mult: 2
    decay_mult: 0
  }
  convolution_param {
    num_output: 16
    pad: 1
    kernel_size: 3
    stride: 1
    weight_filler {
      type: "xavier"
    }
    bias_filler {
      type: "constant"
      value: 0
    }
  }
}
layer {
  name: "conv7_norm_mbox_loc_perm"
  type: "Permute"
  bottom: "conv7_norm_mbox_loc"
  top: "conv7_norm_mbox_loc_perm"
  permute_param {
    order: 0
    order: 2
    order: 3
    order: 1
  }
}
layer {
  name: "conv7_norm_mbox_loc_flat"
  type: "Flatten"
  bottom: "conv7_norm_mbox_loc_perm"
  top: "conv7_norm_mbox_loc_flat"
  flatten_param {
    axis: 1
  }
}
layer {
  name: "conv7_norm_mbox_conf"
  type: "Convolution"
  bottom: "conv7_norm"
  top: "conv7_norm_mbox_conf"
  param {
    lr_mult: 1
    decay_mult: 1
  }
  param {
    lr_mult: 2
    decay_mult: 0
  }
  convolution_param {
    num_output: 16
    pad: 1
    kernel_size: 3
    stride: 1
    weight_filler {
      type: "xavier"
    }
    bias_filler {
      type: "constant"
      value: 0
    }
  }
}
layer {
  name: "conv7_norm_mbox_conf_perm"
  type: "Permute"
  bottom: "conv7_norm_mbox_conf"
  top: "conv7_norm_mbox_conf_perm"
  permute_param {
    order: 0
    order: 2
    order: 3
    order: 1
  }
}
layer {
  name: "conv7_norm_mbox_conf_flat"
  type: "Flatten"
  bottom: "conv7_norm_mbox_conf_perm"
  top: "conv7_norm_mbox_conf_flat"
  flatten_param {
    axis: 1
  }
}
layer {
  name: "conv7_norm_mbox_priorbox"
  type: "PriorBox"
  bottom: "conv7_norm"
  bottom: "data"
  top: "conv7_norm_mbox_priorbox"
  prior_box_param {
    min_size: 30
    max_size: 60
    aspect_ratio: 2
    flip: true
    clip: false
    variance: 0.1
    variance: 0.1
    variance: 0.2
    variance: 0.2
    step: 8
    offset: 0.5
  }
}
layer {
  name: "mbox_loc"
  type: "Concat"
  bottom: "conv3_norm_mbox_loc_flat"
  bottom: "conv4_norm_mbox_loc_flat"
  bottom: "conv5_norm_mbox_loc_flat"
  bottom: "conv6_norm_mbox_loc_flat"
  bottom: "conv7_norm_mbox_loc_flat"
  top: "mbox_loc"
  concat_param {
    axis: 1
  }
}
layer {
  name: "mbox_conf"
  type: "Concat"
  bottom: "conv3_norm_mbox_conf_flat"
  bottom: "conv4_norm_mbox_conf_flat"
  bottom: "conv5_norm_mbox_conf_flat"
  bottom: "conv6_norm_mbox_conf_flat"
  bottom: "conv7_norm_mbox_conf_flat"
  top: "mbox_conf"
  concat_param {
    axis: 1
  }
}
layer {
  name: "mbox_priorbox"
  type: "Concat"
  bottom: "conv3_norm_mbox_priorbox"
  bottom: "conv4_norm_mbox_priorbox"
  bottom: "conv5_norm_mbox_priorbox"
  bottom: "conv6_norm_mbox_priorbox"
  bottom: "conv7_norm_mbox_priorbox"
  top: "mbox_priorbox"
  concat_param {
    axis: 2
  }
}
I0314 16:27:12.543977  8828 layer_factory.hpp:77] Creating layer data
I0314 16:27:12.544081  8828 net.cpp:100] Creating Layer data
I0314 16:27:12.544106  8828 net.cpp:408] data -> data
I0314 16:27:12.544133  8828 net.cpp:408] data -> label
I0314 16:27:12.544159  8828 annotated_data_layer.cpp:31] _______Annotated Data_______
…
I0314 16:27:12.553668  8828 annotated_data_layer.cpp:119] Label_shape
I0314 16:27:12.553673  8828 annotated_data_layer.cpp:121] 1
I0314 16:27:12.553678  8828 annotated_data_layer.cpp:121] 1
I0314 16:27:12.553683  8828 annotated_data_layer.cpp:121] 6
I0314 16:27:12.553688  8828 annotated_data_layer.cpp:121] 8
I0314 16:27:12.553716  8828 annotated_data_layer.cpp:125] reshape_top 
I0314 16:27:12.553722  8828 annotated_data_layer.cpp:127] 0x17d076e0
I0314 16:27:12.553727  8828 annotated_data_layer.cpp:127] 0x17d07910
I0314 16:27:12.569846  8828 net.cpp:150] Setting up data
I0314 16:27:12.569924  8828 net.cpp:157] Top shape: 8 3 300 300 (2160000)
I0314 16:27:12.569933  8828 net.cpp:157] Top shape: 1 1 6 8 (48)
I0314 16:27:12.569939  8828 net.cpp:165] Memory required for data: 8640192
I0314 16:27:12.569949  8828 layer_factory.hpp:77] Creating layer data_data_0_split
I0314 16:27:12.569977  8828 net.cpp:100] Creating Layer data_data_0_split
I0314 16:27:12.569984  8828 net.cpp:434] data_data_0_split <- data
I0314 16:27:12.570004  8828 net.cpp:408] data_data_0_split -> data_data_0_split_0
I0314 16:27:12.570027  8828 net.cpp:408] data_data_0_split -> data_data_0_split_1
I0314 16:27:12.570045  8828 net.cpp:408] data_data_0_split -> data_data_0_split_2
I0314 16:27:12.570065  8828 net.cpp:408] data_data_0_split -> data_data_0_split_3
I0314 16:27:12.570081  8828 net.cpp:408] data_data_0_split -> data_data_0_split_4
I0314 16:27:12.570097  8828 net.cpp:408] data_data_0_split -> data_data_0_split_5
I0314 16:27:12.570724  8828 net.cpp:150] Setting up data_data_0_split
I0314 16:27:12.570744  8828 net.cpp:157] Top shape: 8 3 300 300 (2160000)
I0314 16:27:12.570749  8828 net.cpp:157] Top shape: 8 3 300 300 (2160000)
I0314 16:27:12.570756  8828 net.cpp:157] Top shape: 8 3 300 300 (2160000)
I0314 16:27:12.570762  8828 net.cpp:157] Top shape: 8 3 300 300 (2160000)
I0314 16:27:12.570768  8828 net.cpp:157] Top shape: 8 3 300 300 (2160000)
I0314 16:27:12.570775  8828 net.cpp:157] Top shape: 8 3 300 300 (2160000)
I0314 16:27:12.570780  8828 net.cpp:165] Memory required for data: 60480192
I0314 16:27:12.570786  8828 layer_factory.hpp:77] Creating layer conv1
I0314 16:27:12.570808  8828 net.cpp:100] Creating Layer conv1
I0314 16:27:12.570814  8828 net.cpp:434] conv1 <- data_data_0_split_0
I0314 16:27:12.570832  8828 net.cpp:408] conv1 -> conv1
I0314 16:27:12.571732  8868 annotated_data_layer.cpp:139] Load batch
I0314 16:27:12.573000  8828 net.cpp:150] Setting up conv1
I0314 16:27:12.573036  8828 net.cpp:157] Top shape: 8 64 296 296 (44859392)
I0314 16:27:12.573043  8828 net.cpp:165] Memory required for data: 239917760
I0314 16:27:12.573065  8828 layer_factory.hpp:77] Creating layer relu1
I0314 16:27:12.573086  8828 net.cpp:100] Creating Layer relu1
I0314 16:27:12.573091  8828 net.cpp:434] relu1 <- conv1
I0314 16:27:12.573107  8828 net.cpp:408] relu1 -> relu1
I0314 16:27:12.573633  8828 net.cpp:150] Setting up relu1
I0314 16:27:12.573667  8828 net.cpp:157] Top shape: 8 64 296 296 (44859392)
I0314 16:27:12.573673  8828 net.cpp:165] Memory required for data: 419355328
I0314 16:27:12.573679  8828 layer_factory.hpp:77] Creating layer conv2
I0314 16:27:12.573701  8828 net.cpp:100] Creating Layer conv2
I0314 16:27:12.573707  8828 net.cpp:434] conv2 <- relu1
I0314 16:27:12.573725  8828 net.cpp:408] conv2 -> conv2
I0314 16:27:12.576547  8828 net.cpp:150] Setting up conv2
I0314 16:27:12.576584  8828 net.cpp:157] Top shape: 8 64 292 292 (43655168)
I0314 16:27:12.576591  8828 net.cpp:165] Memory required for data: 593976000
I0314 16:27:12.576611  8828 layer_factory.hpp:77] Creating layer relu2
I0314 16:27:12.576628  8828 net.cpp:100] Creating Layer relu2
I0314 16:27:12.576634  8828 net.cpp:434] relu2 <- conv2
I0314 16:27:12.576650  8828 net.cpp:408] relu2 -> relu2
I0314 16:27:12.577162  8828 net.cpp:150] Setting up relu2
I0314 16:27:12.577195  8828 net.cpp:157] Top shape: 8 64 292 292 (43655168)
I0314 16:27:12.577201  8828 net.cpp:165] Memory required for data: 768596672
I0314 16:27:12.577208  8828 layer_factory.hpp:77] Creating layer pool2
I0314 16:27:12.577226  8828 net.cpp:100] Creating Layer pool2
I0314 16:27:12.577232  8828 net.cpp:434] pool2 <- relu2
I0314 16:27:12.577250  8828 net.cpp:408] pool2 -> pool2
I0314 16:27:12.577311  8828 net.cpp:150] Setting up pool2
I0314 16:27:12.577328  8828 net.cpp:157] Top shape: 8 64 146 146 (10913792)
I0314 16:27:12.577334  8828 net.cpp:165] Memory required for data: 812251840
I0314 16:27:12.577339  8828 layer_factory.hpp:77] Creating layer conv3
I0314 16:27:12.577358  8828 net.cpp:100] Creating Layer conv3
I0314 16:27:12.577364  8828 net.cpp:434] conv3 <- pool2
I0314 16:27:12.577381  8828 net.cpp:408] conv3 -> conv3
I0314 16:27:12.580710  8834 data_transformer.cpp:1068] INFER 3
I0314 16:27:12.580747  8834 annotated_data_layer.cpp:234] 8 3
I0314 16:27:12.580754  8834 annotated_data_layer.cpp:234] 3 3
I0314 16:27:12.580760  8834 annotated_data_layer.cpp:234] 300 3
I0314 16:27:12.580765  8834 annotated_data_layer.cpp:234] 300 3
I0314 16:27:12.581001  8828 net.cpp:150] Setting up conv3
I0314 16:27:12.581038  8828 net.cpp:157] Top shape: 8 128 142 142 (20647936)
I0314 16:27:12.581045  8828 net.cpp:165] Memory required for data: 894843584
I0314 16:27:12.581065  8828 layer_factory.hpp:77] Creating layer relu3
I0314 16:27:12.581085  8828 net.cpp:100] Creating Layer relu3
I0314 16:27:12.581091  8828 net.cpp:434] relu3 <- conv3
I0314 16:27:12.581109  8828 net.cpp:408] relu3 -> relu3
I0314 16:27:12.581347  8828 net.cpp:150] Setting up relu3
I0314 16:27:12.581377  8828 net.cpp:157] Top shape: 8 128 142 142 (20647936)
I0314 16:27:12.581382  8828 net.cpp:165] Memory required for data: 977435328
I0314 16:27:12.581388  8828 layer_factory.hpp:77] Creating layer relu3_relu3_0_split
I0314 16:27:12.581404  8828 net.cpp:100] Creating Layer relu3_relu3_0_split
I0314 16:27:12.581410  8828 net.cpp:434] relu3_relu3_0_split <- relu3
I0314 16:27:12.581419  8828 net.cpp:408] relu3_relu3_0_split -> relu3_relu3_0_split_0
I0314 16:27:12.581437  8828 net.cpp:408] relu3_relu3_0_split -> relu3_relu3_0_split_1
I0314 16:27:12.581498  8828 net.cpp:150] Setting up relu3_relu3_0_split
I0314 16:27:12.581516  8828 net.cpp:157] Top shape: 8 128 142 142 (20647936)
I0314 16:27:12.581523  8828 net.cpp:157] Top shape: 8 128 142 142 (20647936)
I0314 16:27:12.581528  8828 net.cpp:165] Memory required for data: 1142618816
I0314 16:27:12.581533  8828 layer_factory.hpp:77] Creating layer conv4
I0314 16:27:12.581559  8828 net.cpp:100] Creating Layer conv4
I0314 16:27:12.581580  8828 net.cpp:434] conv4 <- relu3_relu3_0_split_0
I0314 16:27:12.581598  8828 net.cpp:408] conv4 -> conv4
I0314 16:27:12.586426  8828 net.cpp:150] Setting up conv4
I0314 16:27:12.586464  8828 net.cpp:157] Top shape: 8 128 138 138 (19501056)
I0314 16:27:12.586470  8828 net.cpp:165] Memory required for data: 1220623040
I0314 16:27:12.586488  8828 layer_factory.hpp:77] Creating layer relu4
I0314 16:27:12.586505  8828 net.cpp:100] Creating Layer relu4
I0314 16:27:12.586511  8828 net.cpp:434] relu4 <- conv4
I0314 16:27:12.586527  8828 net.cpp:408] relu4 -> relu4
I0314 16:27:12.587092  8828 net.cpp:150] Setting up relu4
I0314 16:27:12.587128  8828 net.cpp:157] Top shape: 8 128 138 138 (19501056)
I0314 16:27:12.587134  8828 net.cpp:165] Memory required for data: 1298627264
I0314 16:27:12.587141  8828 layer_factory.hpp:77] Creating layer pool4
I0314 16:27:12.587158  8828 net.cpp:100] Creating Layer pool4
I0314 16:27:12.587165  8828 net.cpp:434] pool4 <- relu4
I0314 16:27:12.587182  8828 net.cpp:408] pool4 -> pool4
I0314 16:27:12.587271  8828 net.cpp:150] Setting up pool4
I0314 16:27:12.587291  8828 net.cpp:157] Top shape: 8 128 69 69 (4875264)
I0314 16:27:12.587306  8828 net.cpp:165] Memory required for data: 1318128320
I0314 16:27:12.587311  8828 layer_factory.hpp:77] Creating layer pool4_pool4_0_split
I0314 16:27:12.587328  8828 net.cpp:100] Creating Layer pool4_pool4_0_split
I0314 16:27:12.587334  8828 net.cpp:434] pool4_pool4_0_split <- pool4
I0314 16:27:12.587352  8828 net.cpp:408] pool4_pool4_0_split -> pool4_pool4_0_split_0
I0314 16:27:12.587369  8828 net.cpp:408] pool4_pool4_0_split -> pool4_pool4_0_split_1
I0314 16:27:12.587440  8828 net.cpp:150] Setting up pool4_pool4_0_split
I0314 16:27:12.587457  8828 net.cpp:157] Top shape: 8 128 69 69 (4875264)
I0314 16:27:12.587463  8828 net.cpp:157] Top shape: 8 128 69 69 (4875264)
I0314 16:27:12.587468  8828 net.cpp:165] Memory required for data: 1357130432
I0314 16:27:12.587473  8828 layer_factory.hpp:77] Creating layer conv5
I0314 16:27:12.587486  8828 net.cpp:100] Creating Layer conv5
I0314 16:27:12.587491  8828 net.cpp:434] conv5 <- pool4_pool4_0_split_0
I0314 16:27:12.587502  8828 net.cpp:408] conv5 -> conv5
I0314 16:27:12.587604  8868 data_transformer.cpp:1068] INFER 3
I0314 16:27:12.588191  8834 annotated_data_layer.cpp:139] Load batch
I0314 16:27:12.595280  8828 net.cpp:150] Setting up conv5
I0314 16:27:12.595322  8828 net.cpp:157] Top shape: 8 256 65 65 (8652800)
I0314 16:27:12.595329  8828 net.cpp:165] Memory required for data: 1391741632
I0314 16:27:12.595350  8828 layer_factory.hpp:77] Creating layer relu5
I0314 16:27:12.595361  8828 net.cpp:100] Creating Layer relu5
I0314 16:27:12.595367  8828 net.cpp:434] relu5 <- conv5
I0314 16:27:12.595386  8828 net.cpp:408] relu5 -> relu5
I0314 16:27:12.595903  8828 net.cpp:150] Setting up relu5
I0314 16:27:12.595937  8828 net.cpp:157] Top shape: 8 256 65 65 (8652800)
I0314 16:27:12.595943  8828 net.cpp:165] Memory required for data: 1426352832
I0314 16:27:12.595949  8828 layer_factory.hpp:77] Creating layer relu5_relu5_0_split
I0314 16:27:12.595969  8828 net.cpp:100] Creating Layer relu5_relu5_0_split
I0314 16:27:12.595976  8828 net.cpp:434] relu5_relu5_0_split <- relu5
I0314 16:27:12.595993  8828 net.cpp:408] relu5_relu5_0_split -> relu5_relu5_0_split_0
I0314 16:27:12.596010  8828 net.cpp:408] relu5_relu5_0_split -> relu5_relu5_0_split_1
I0314 16:27:12.596071  8828 net.cpp:150] Setting up relu5_relu5_0_split
I0314 16:27:12.596088  8828 net.cpp:157] Top shape: 8 256 65 65 (8652800)
I0314 16:27:12.596094  8828 net.cpp:157] Top shape: 8 256 65 65 (8652800)
I0314 16:27:12.596099  8828 net.cpp:165] Memory required for data: 1495575232
I0314 16:27:12.596104  8828 layer_factory.hpp:77] Creating layer conv6
I0314 16:27:12.596125  8828 net.cpp:100] Creating Layer conv6
I0314 16:27:12.596132  8828 net.cpp:434] conv6 <- relu5_relu5_0_split_0
I0314 16:27:12.596148  8828 net.cpp:408] conv6 -> conv6
I0314 16:27:12.597345  8834 data_transformer.cpp:1068] INFER 3
I0314 16:27:12.610405  8828 net.cpp:150] Setting up conv6
I0314 16:27:12.610462  8828 net.cpp:157] Top shape: 8 256 61 61 (7620608)
I0314 16:27:12.610469  8828 net.cpp:165] Memory required for data: 1526057664
I0314 16:27:12.610486  8828 layer_factory.hpp:77] Creating layer relu6
I0314 16:27:12.610496  8828 net.cpp:100] Creating Layer relu6
I0314 16:27:12.610502  8828 net.cpp:434] relu6 <- conv6
I0314 16:27:12.610522  8828 net.cpp:408] relu6 -> relu6
I0314 16:27:12.610767  8828 net.cpp:150] Setting up relu6
I0314 16:27:12.610796  8828 net.cpp:157] Top shape: 8 256 61 61 (7620608)
I0314 16:27:12.610802  8828 net.cpp:165] Memory required for data: 1556540096
I0314 16:27:12.610808  8828 layer_factory.hpp:77] Creating layer pool6
I0314 16:27:12.610827  8828 net.cpp:100] Creating Layer pool6
I0314 16:27:12.610833  8828 net.cpp:434] pool6 <- relu6
I0314 16:27:12.610849  8828 net.cpp:408] pool6 -> pool6
I0314 16:27:12.610952  8828 net.cpp:150] Setting up pool6
I0314 16:27:12.610970  8828 net.cpp:157] Top shape: 8 256 31 31 (1968128)
I0314 16:27:12.610980  8828 net.cpp:165] Memory required for data: 1564412608
I0314 16:27:12.610988  8828 layer_factory.hpp:77] Creating layer pool6_pool6_0_split
I0314 16:27:12.611007  8828 net.cpp:100] Creating Layer pool6_pool6_0_split
I0314 16:27:12.611016  8828 net.cpp:434] pool6_pool6_0_split <- pool6
I0314 16:27:12.611038  8828 net.cpp:408] pool6_pool6_0_split -> pool6_pool6_0_split_0
I0314 16:27:12.611059  8828 net.cpp:408] pool6_pool6_0_split -> pool6_pool6_0_split_1
I0314 16:27:12.611122  8828 net.cpp:150] Setting up pool6_pool6_0_split
I0314 16:27:12.611140  8828 net.cpp:157] Top shape: 8 256 31 31 (1968128)
I0314 16:27:12.611146  8828 net.cpp:157] Top shape: 8 256 31 31 (1968128)
I0314 16:27:12.611151  8828 net.cpp:165] Memory required for data: 1580157632
I0314 16:27:12.611156  8828 layer_factory.hpp:77] Creating layer conv7
I0314 16:27:12.611181  8828 net.cpp:100] Creating Layer conv7
I0314 16:27:12.611186  8828 net.cpp:434] conv7 <- pool6_pool6_0_split_0
I0314 16:27:12.611203  8828 net.cpp:408] conv7 -> conv7
I0314 16:27:12.614439  8834 data_transformer.cpp:1068] INFER 3
I0314 16:27:12.614466  8834 annotated_data_layer.cpp:234] 8 3
I0314 16:27:12.614472  8834 annotated_data_layer.cpp:234] 3 3
I0314 16:27:12.614477  8834 annotated_data_layer.cpp:234] 300 3
I0314 16:27:12.614482  8834 annotated_data_layer.cpp:234] 300 3
I0314 16:27:12.619184  8828 net.cpp:150] Setting up conv7
I0314 16:27:12.619220  8828 net.cpp:157] Top shape: 8 128 27 27 (746496)
I0314 16:27:12.619227  8828 net.cpp:165] Memory required for data: 1583143616
I0314 16:27:12.619246  8828 layer_factory.hpp:77] Creating layer relu7
I0314 16:27:12.619261  8828 net.cpp:100] Creating Layer relu7
I0314 16:27:12.619267  8828 net.cpp:434] relu7 <- conv7
I0314 16:27:12.619285  8828 net.cpp:408] relu7 -> relu7
I0314 16:27:12.619838  8828 net.cpp:150] Setting up relu7
I0314 16:27:12.619873  8828 net.cpp:157] Top shape: 8 128 27 27 (746496)
I0314 16:27:12.619879  8828 net.cpp:165] Memory required for data: 1586129600
I0314 16:27:12.619884  8828 layer_factory.hpp:77] Creating layer conv3_norm
I0314 16:27:12.619905  8828 net.cpp:100] Creating Layer conv3_norm
I0314 16:27:12.619912  8828 net.cpp:434] conv3_norm <- relu3_relu3_0_split_1
I0314 16:27:12.619928  8828 net.cpp:408] conv3_norm -> conv3_norm
I0314 16:27:12.620162  8828 net.cpp:150] Setting up conv3_norm
I0314 16:27:12.620182  8828 net.cpp:157] Top shape: 8 128 142 142 (20647936)
I0314 16:27:12.620187  8828 net.cpp:165] Memory required for data: 1668721344
I0314 16:27:12.620203  8828 layer_factory.hpp:77] Creating layer conv3_norm_conv3_norm_0_split
I0314 16:27:12.620220  8828 net.cpp:100] Creating Layer conv3_norm_conv3_norm_0_split
I0314 16:27:12.620227  8828 net.cpp:434] conv3_norm_conv3_norm_0_split <- conv3_norm
I0314 16:27:12.620244  8828 net.cpp:408] conv3_norm_conv3_norm_0_split -> conv3_norm_conv3_norm_0_split_0
I0314 16:27:12.620261  8828 net.cpp:408] conv3_norm_conv3_norm_0_split -> conv3_norm_conv3_norm_0_split_1
I0314 16:27:12.620280  8828 net.cpp:408] conv3_norm_conv3_norm_0_split -> conv3_norm_conv3_norm_0_split_2
I0314 16:27:12.620373  8828 net.cpp:150] Setting up conv3_norm_conv3_norm_0_split
I0314 16:27:12.620390  8828 net.cpp:157] Top shape: 8 128 142 142 (20647936)
I0314 16:27:12.620396  8828 net.cpp:157] Top shape: 8 128 142 142 (20647936)
I0314 16:27:12.620402  8828 net.cpp:157] Top shape: 8 128 142 142 (20647936)
I0314 16:27:12.620407  8828 net.cpp:165] Memory required for data: 1916496576
I0314 16:27:12.620414  8828 layer_factory.hpp:77] Creating layer conv3_norm_mbox_loc
I0314 16:27:12.620435  8828 net.cpp:100] Creating Layer conv3_norm_mbox_loc
I0314 16:27:12.620441  8828 net.cpp:434] conv3_norm_mbox_loc <- conv3_norm_conv3_norm_0_split_0
I0314 16:27:12.620457  8828 net.cpp:408] conv3_norm_mbox_loc -> conv3_norm_mbox_loc
I0314 16:27:12.622404  8828 net.cpp:150] Setting up conv3_norm_mbox_loc
I0314 16:27:12.622439  8828 net.cpp:157] Top shape: 8 16 142 142 (2580992)
I0314 16:27:12.622445  8828 net.cpp:165] Memory required for data: 1926820544
I0314 16:27:12.622469  8828 layer_factory.hpp:77] Creating layer conv3_norm_mbox_loc_perm
I0314 16:27:12.622488  8828 net.cpp:100] Creating Layer conv3_norm_mbox_loc_perm
I0314 16:27:12.622495  8828 net.cpp:434] conv3_norm_mbox_loc_perm <- conv3_norm_mbox_loc
I0314 16:27:12.622512  8828 net.cpp:408] conv3_norm_mbox_loc_perm -> conv3_norm_mbox_loc_perm
I0314 16:27:12.622663  8828 net.cpp:150] Setting up conv3_norm_mbox_loc_perm
I0314 16:27:12.622681  8828 net.cpp:157] Top shape: 8 142 142 16 (2580992)
I0314 16:27:12.622686  8828 net.cpp:165] Memory required for data: 1937144512
I0314 16:27:12.622691  8828 layer_factory.hpp:77] Creating layer conv3_norm_mbox_loc_flat
I0314 16:27:12.622709  8828 net.cpp:100] Creating Layer conv3_norm_mbox_loc_flat
I0314 16:27:12.622714  8828 net.cpp:434] conv3_norm_mbox_loc_flat <- conv3_norm_mbox_loc_perm
I0314 16:27:12.622732  8828 net.cpp:408] conv3_norm_mbox_loc_flat -> conv3_norm_mbox_loc_flat
I0314 16:27:12.622777  8828 net.cpp:150] Setting up conv3_norm_mbox_loc_flat
I0314 16:27:12.622795  8828 net.cpp:157] Top shape: 8 322624 (2580992)
I0314 16:27:12.622802  8828 net.cpp:165] Memory required for data: 1947468480
I0314 16:27:12.622807  8828 layer_factory.hpp:77] Creating layer conv3_norm_mbox_conf
I0314 16:27:12.622829  8828 net.cpp:100] Creating Layer conv3_norm_mbox_conf
I0314 16:27:12.622836  8828 net.cpp:434] conv3_norm_mbox_conf <- conv3_norm_conv3_norm_0_split_1
I0314 16:27:12.622865  8828 net.cpp:408] conv3_norm_mbox_conf -> conv3_norm_mbox_conf
I0314 16:27:12.624873  8828 net.cpp:150] Setting up conv3_norm_mbox_conf
I0314 16:27:12.624912  8828 net.cpp:157] Top shape: 8 16 142 142 (2580992)
I0314 16:27:12.624917  8828 net.cpp:165] Memory required for data: 1957792448
I0314 16:27:12.624935  8828 layer_factory.hpp:77] Creating layer conv3_norm_mbox_conf_perm
I0314 16:27:12.624953  8828 net.cpp:100] Creating Layer conv3_norm_mbox_conf_perm
I0314 16:27:12.624959  8828 net.cpp:434] conv3_norm_mbox_conf_perm <- conv3_norm_mbox_conf
I0314 16:27:12.624979  8828 net.cpp:408] conv3_norm_mbox_conf_perm -> conv3_norm_mbox_conf_perm
I0314 16:27:12.625128  8828 net.cpp:150] Setting up conv3_norm_mbox_conf_perm
I0314 16:27:12.625146  8828 net.cpp:157] Top shape: 8 142 142 16 (2580992)
I0314 16:27:12.625151  8828 net.cpp:165] Memory required for data: 1968116416
I0314 16:27:12.625156  8828 layer_factory.hpp:77] Creating layer conv3_norm_mbox_conf_flat
I0314 16:27:12.625174  8828 net.cpp:100] Creating Layer conv3_norm_mbox_conf_flat
I0314 16:27:12.625180  8828 net.cpp:434] conv3_norm_mbox_conf_flat <- conv3_norm_mbox_conf_perm
I0314 16:27:12.625197  8828 net.cpp:408] conv3_norm_mbox_conf_flat -> conv3_norm_mbox_conf_flat
I0314 16:27:12.625242  8828 net.cpp:150] Setting up conv3_norm_mbox_conf_flat
I0314 16:27:12.625259  8828 net.cpp:157] Top shape: 8 322624 (2580992)
I0314 16:27:12.625264  8828 net.cpp:165] Memory required for data: 1978440384
I0314 16:27:12.625270  8828 layer_factory.hpp:77] Creating layer conv3_norm_mbox_priorbox
I0314 16:27:12.625288  8828 net.cpp:100] Creating Layer conv3_norm_mbox_priorbox
I0314 16:27:12.625308  8828 net.cpp:434] conv3_norm_mbox_priorbox <- conv3_norm_conv3_norm_0_split_2
I0314 16:27:12.625337  8828 net.cpp:434] conv3_norm_mbox_priorbox <- data_data_0_split_1
I0314 16:27:12.625355  8828 net.cpp:408] conv3_norm_mbox_priorbox -> conv3_norm_mbox_priorbox
I0314 16:27:12.625404  8828 net.cpp:150] Setting up conv3_norm_mbox_priorbox
I0314 16:27:12.625422  8828 net.cpp:157] Top shape: 1 2 322624 (645248)
I0314 16:27:12.625427  8828 net.cpp:165] Memory required for data: 1981021376
I0314 16:27:12.625432  8828 layer_factory.hpp:77] Creating layer conv4_norm
I0314 16:27:12.625455  8828 net.cpp:100] Creating Layer conv4_norm
I0314 16:27:12.625461  8828 net.cpp:434] conv4_norm <- pool4_pool4_0_split_1
I0314 16:27:12.625478  8828 net.cpp:408] conv4_norm -> conv4_norm
I0314 16:27:12.625682  8828 net.cpp:150] Setting up conv4_norm
I0314 16:27:12.625700  8828 net.cpp:157] Top shape: 8 128 69 69 (4875264)
I0314 16:27:12.625705  8828 net.cpp:165] Memory required for data: 2000522432
I0314 16:27:12.625720  8828 layer_factory.hpp:77] Creating layer conv4_norm_conv4_norm_0_split
I0314 16:27:12.625738  8828 net.cpp:100] Creating Layer conv4_norm_conv4_norm_0_split
I0314 16:27:12.625744  8828 net.cpp:434] conv4_norm_conv4_norm_0_split <- conv4_norm
I0314 16:27:12.625759  8828 net.cpp:408] conv4_norm_conv4_norm_0_split -> conv4_norm_conv4_norm_0_split_0
I0314 16:27:12.625777  8828 net.cpp:408] conv4_norm_conv4_norm_0_split -> conv4_norm_conv4_norm_0_split_1
I0314 16:27:12.625792  8828 net.cpp:408] conv4_norm_conv4_norm_0_split -> conv4_norm_conv4_norm_0_split_2
I0314 16:27:12.625862  8828 net.cpp:150] Setting up conv4_norm_conv4_norm_0_split
I0314 16:27:12.625880  8828 net.cpp:157] Top shape: 8 128 69 69 (4875264)
I0314 16:27:12.625886  8828 net.cpp:157] Top shape: 8 128 69 69 (4875264)
I0314 16:27:12.625892  8828 net.cpp:157] Top shape: 8 128 69 69 (4875264)
I0314 16:27:12.625897  8828 net.cpp:165] Memory required for data: 2059025600
I0314 16:27:12.625902  8828 layer_factory.hpp:77] Creating layer conv4_norm_mbox_loc
I0314 16:27:12.625923  8828 net.cpp:100] Creating Layer conv4_norm_mbox_loc
I0314 16:27:12.625931  8828 net.cpp:434] conv4_norm_mbox_loc <- conv4_norm_conv4_norm_0_split_0
I0314 16:27:12.625949  8828 net.cpp:408] conv4_norm_mbox_loc -> conv4_norm_mbox_loc
I0314 16:27:12.628552  8828 net.cpp:150] Setting up conv4_norm_mbox_loc
I0314 16:27:12.628589  8828 net.cpp:157] Top shape: 8 16 69 69 (609408)
I0314 16:27:12.628595  8828 net.cpp:165] Memory required for data: 2061463232
I0314 16:27:12.628612  8828 layer_factory.hpp:77] Creating layer conv4_norm_mbox_loc_perm
I0314 16:27:12.628633  8828 net.cpp:100] Creating Layer conv4_norm_mbox_loc_perm
I0314 16:27:12.628638  8828 net.cpp:434] conv4_norm_mbox_loc_perm <- conv4_norm_mbox_loc
I0314 16:27:12.628655  8828 net.cpp:408] conv4_norm_mbox_loc_perm -> conv4_norm_mbox_loc_perm
I0314 16:27:12.628804  8828 net.cpp:150] Setting up conv4_norm_mbox_loc_perm
I0314 16:27:12.628823  8828 net.cpp:157] Top shape: 8 69 69 16 (609408)
I0314 16:27:12.628829  8828 net.cpp:165] Memory required for data: 2063900864
I0314 16:27:12.628834  8828 layer_factory.hpp:77] Creating layer conv4_norm_mbox_loc_flat
I0314 16:27:12.628850  8828 net.cpp:100] Creating Layer conv4_norm_mbox_loc_flat
I0314 16:27:12.628856  8828 net.cpp:434] conv4_norm_mbox_loc_flat <- conv4_norm_mbox_loc_perm
I0314 16:27:12.628875  8828 net.cpp:408] conv4_norm_mbox_loc_flat -> conv4_norm_mbox_loc_flat
I0314 16:27:12.628921  8828 net.cpp:150] Setting up conv4_norm_mbox_loc_flat
I0314 16:27:12.628929  8828 net.cpp:157] Top shape: 8 76176 (609408)
I0314 16:27:12.628935  8828 net.cpp:165] Memory required for data: 2066338496
I0314 16:27:12.628940  8828 layer_factory.hpp:77] Creating layer conv4_norm_mbox_conf
I0314 16:27:12.628960  8828 net.cpp:100] Creating Layer conv4_norm_mbox_conf
I0314 16:27:12.628968  8828 net.cpp:434] conv4_norm_mbox_conf <- conv4_norm_conv4_norm_0_split_1
I0314 16:27:12.628986  8828 net.cpp:408] conv4_norm_mbox_conf -> conv4_norm_mbox_conf
I0314 16:27:12.630975  8828 net.cpp:150] Setting up conv4_norm_mbox_conf
I0314 16:27:12.631026  8828 net.cpp:157] Top shape: 8 16 69 69 (609408)
I0314 16:27:12.631052  8828 net.cpp:165] Memory required for data: 2068776128
I0314 16:27:12.631067  8828 layer_factory.hpp:77] Creating layer conv4_norm_mbox_conf_perm
I0314 16:27:12.631085  8828 net.cpp:100] Creating Layer conv4_norm_mbox_conf_perm
I0314 16:27:12.631104  8828 net.cpp:434] conv4_norm_mbox_conf_perm <- conv4_norm_mbox_conf
I0314 16:27:12.631116  8828 net.cpp:408] conv4_norm_mbox_conf_perm -> conv4_norm_mbox_conf_perm
I0314 16:27:12.631278  8828 net.cpp:150] Setting up conv4_norm_mbox_conf_perm
I0314 16:27:12.631299  8828 net.cpp:157] Top shape: 8 69 69 16 (609408)
I0314 16:27:12.631304  8828 net.cpp:165] Memory required for data: 2071213760
I0314 16:27:12.631309  8828 layer_factory.hpp:77] Creating layer conv4_norm_mbox_conf_flat
I0314 16:27:12.631325  8828 net.cpp:100] Creating Layer conv4_norm_mbox_conf_flat
I0314 16:27:12.631331  8828 net.cpp:434] conv4_norm_mbox_conf_flat <- conv4_norm_mbox_conf_perm
I0314 16:27:12.631350  8828 net.cpp:408] conv4_norm_mbox_conf_flat -> conv4_norm_mbox_conf_flat
I0314 16:27:12.631395  8828 net.cpp:150] Setting up conv4_norm_mbox_conf_flat
I0314 16:27:12.631414  8828 net.cpp:157] Top shape: 8 76176 (609408)
I0314 16:27:12.631419  8828 net.cpp:165] Memory required for data: 2073651392
I0314 16:27:12.631424  8828 layer_factory.hpp:77] Creating layer conv4_norm_mbox_priorbox
I0314 16:27:12.631440  8828 net.cpp:100] Creating Layer conv4_norm_mbox_priorbox
I0314 16:27:12.631448  8828 net.cpp:434] conv4_norm_mbox_priorbox <- conv4_norm_conv4_norm_0_split_2
I0314 16:27:12.631455  8828 net.cpp:434] conv4_norm_mbox_priorbox <- data_data_0_split_2
I0314 16:27:12.631471  8828 net.cpp:408] conv4_norm_mbox_priorbox -> conv4_norm_mbox_priorbox
I0314 16:27:12.631517  8828 net.cpp:150] Setting up conv4_norm_mbox_priorbox
I0314 16:27:12.631534  8828 net.cpp:157] Top shape: 1 2 76176 (152352)
I0314 16:27:12.631541  8828 net.cpp:165] Memory required for data: 2074260800
I0314 16:27:12.631546  8828 layer_factory.hpp:77] Creating layer conv5_norm
I0314 16:27:12.631562  8828 net.cpp:100] Creating Layer conv5_norm
I0314 16:27:12.631569  8828 net.cpp:434] conv5_norm <- relu5_relu5_0_split_1
I0314 16:27:12.631585  8828 net.cpp:408] conv5_norm -> conv5_norm
I0314 16:27:12.631788  8828 net.cpp:150] Setting up conv5_norm
I0314 16:27:12.631808  8828 net.cpp:157] Top shape: 8 256 65 65 (8652800)
I0314 16:27:12.631814  8828 net.cpp:165] Memory required for data: 2108872000
I0314 16:27:12.631820  8828 layer_factory.hpp:77] Creating layer conv5_norm_conv5_norm_0_split
I0314 16:27:12.631844  8828 net.cpp:100] Creating Layer conv5_norm_conv5_norm_0_split
I0314 16:27:12.631850  8828 net.cpp:434] conv5_norm_conv5_norm_0_split <- conv5_norm
I0314 16:27:12.631865  8828 net.cpp:408] conv5_norm_conv5_norm_0_split -> conv5_norm_conv5_norm_0_split_0
I0314 16:27:12.631875  8828 net.cpp:408] conv5_norm_conv5_norm_0_split -> conv5_norm_conv5_norm_0_split_1
I0314 16:27:12.631891  8828 net.cpp:408] conv5_norm_conv5_norm_0_split -> conv5_norm_conv5_norm_0_split_2
I0314 16:27:12.631963  8828 net.cpp:150] Setting up conv5_norm_conv5_norm_0_split
I0314 16:27:12.631981  8828 net.cpp:157] Top shape: 8 256 65 65 (8652800)
I0314 16:27:12.631988  8828 net.cpp:157] Top shape: 8 256 65 65 (8652800)
I0314 16:27:12.631994  8828 net.cpp:157] Top shape: 8 256 65 65 (8652800)
I0314 16:27:12.631999  8828 net.cpp:165] Memory required for data: 2212705600
I0314 16:27:12.632004  8828 layer_factory.hpp:77] Creating layer conv5_norm_mbox_loc
I0314 16:27:12.632024  8828 net.cpp:100] Creating Layer conv5_norm_mbox_loc
I0314 16:27:12.632030  8828 net.cpp:434] conv5_norm_mbox_loc <- conv5_norm_conv5_norm_0_split_0
I0314 16:27:12.632048  8828 net.cpp:408] conv5_norm_mbox_loc -> conv5_norm_mbox_loc
I0314 16:27:12.634101  8828 net.cpp:150] Setting up conv5_norm_mbox_loc
I0314 16:27:12.634136  8828 net.cpp:157] Top shape: 8 16 65 65 (540800)
I0314 16:27:12.634142  8828 net.cpp:165] Memory required for data: 2214868800
I0314 16:27:12.634165  8828 layer_factory.hpp:77] Creating layer conv5_norm_mbox_loc_perm
I0314 16:27:12.634189  8828 net.cpp:100] Creating Layer conv5_norm_mbox_loc_perm
I0314 16:27:12.634196  8828 net.cpp:434] conv5_norm_mbox_loc_perm <- conv5_norm_mbox_loc
I0314 16:27:12.634213  8828 net.cpp:408] conv5_norm_mbox_loc_perm -> conv5_norm_mbox_loc_perm
I0314 16:27:12.634362  8828 net.cpp:150] Setting up conv5_norm_mbox_loc_perm
I0314 16:27:12.634382  8828 net.cpp:157] Top shape: 8 65 65 16 (540800)
I0314 16:27:12.634387  8828 net.cpp:165] Memory required for data: 2217032000
I0314 16:27:12.634392  8828 layer_factory.hpp:77] Creating layer conv5_norm_mbox_loc_flat
I0314 16:27:12.634400  8828 net.cpp:100] Creating Layer conv5_norm_mbox_loc_flat
I0314 16:27:12.634407  8828 net.cpp:434] conv5_norm_mbox_loc_flat <- conv5_norm_mbox_loc_perm
I0314 16:27:12.634425  8828 net.cpp:408] conv5_norm_mbox_loc_flat -> conv5_norm_mbox_loc_flat
I0314 16:27:12.634469  8828 net.cpp:150] Setting up conv5_norm_mbox_loc_flat
I0314 16:27:12.634486  8828 net.cpp:157] Top shape: 8 67600 (540800)
I0314 16:27:12.634491  8828 net.cpp:165] Memory required for data: 2219195200
I0314 16:27:12.634497  8828 layer_factory.hpp:77] Creating layer conv5_norm_mbox_conf
I0314 16:27:12.634519  8828 net.cpp:100] Creating Layer conv5_norm_mbox_conf
I0314 16:27:12.634526  8828 net.cpp:434] conv5_norm_mbox_conf <- conv5_norm_conv5_norm_0_split_1
I0314 16:27:12.634544  8828 net.cpp:408] conv5_norm_mbox_conf -> conv5_norm_mbox_conf
I0314 16:27:12.636445  8828 net.cpp:150] Setting up conv5_norm_mbox_conf
I0314 16:27:12.636482  8828 net.cpp:157] Top shape: 8 16 65 65 (540800)
I0314 16:27:12.636489  8828 net.cpp:165] Memory required for data: 2221358400
I0314 16:27:12.636507  8828 layer_factory.hpp:77] Creating layer conv5_norm_mbox_conf_perm
I0314 16:27:12.636525  8828 net.cpp:100] Creating Layer conv5_norm_mbox_conf_perm
I0314 16:27:12.636531  8828 net.cpp:434] conv5_norm_mbox_conf_perm <- conv5_norm_mbox_conf
I0314 16:27:12.636549  8828 net.cpp:408] conv5_norm_mbox_conf_perm -> conv5_norm_mbox_conf_perm
I0314 16:27:12.636700  8828 net.cpp:150] Setting up conv5_norm_mbox_conf_perm
I0314 16:27:12.636720  8828 net.cpp:157] Top shape: 8 65 65 16 (540800)
I0314 16:27:12.636726  8828 net.cpp:165] Memory required for data: 2223521600
I0314 16:27:12.636731  8828 layer_factory.hpp:77] Creating layer conv5_norm_mbox_conf_flat
I0314 16:27:12.636747  8828 net.cpp:100] Creating Layer conv5_norm_mbox_conf_flat
I0314 16:27:12.636754  8828 net.cpp:434] conv5_norm_mbox_conf_flat <- conv5_norm_mbox_conf_perm
I0314 16:27:12.636770  8828 net.cpp:408] conv5_norm_mbox_conf_flat -> conv5_norm_mbox_conf_flat
I0314 16:27:12.636828  8828 net.cpp:150] Setting up conv5_norm_mbox_conf_flat
I0314 16:27:12.636847  8828 net.cpp:157] Top shape: 8 67600 (540800)
I0314 16:27:12.636852  8828 net.cpp:165] Memory required for data: 2225684800
I0314 16:27:12.636858  8828 layer_factory.hpp:77] Creating layer conv5_norm_mbox_priorbox
I0314 16:27:12.636874  8828 net.cpp:100] Creating Layer conv5_norm_mbox_priorbox
I0314 16:27:12.636880  8828 net.cpp:434] conv5_norm_mbox_priorbox <- conv5_norm_conv5_norm_0_split_2
I0314 16:27:12.636888  8828 net.cpp:434] conv5_norm_mbox_priorbox <- data_data_0_split_3
I0314 16:27:12.636905  8828 net.cpp:408] conv5_norm_mbox_priorbox -> conv5_norm_mbox_priorbox
I0314 16:27:12.636950  8828 net.cpp:150] Setting up conv5_norm_mbox_priorbox
I0314 16:27:12.636967  8828 net.cpp:157] Top shape: 1 2 67600 (135200)
I0314 16:27:12.636972  8828 net.cpp:165] Memory required for data: 2226225600
I0314 16:27:12.636977  8828 layer_factory.hpp:77] Creating layer conv6_norm
I0314 16:27:12.636994  8828 net.cpp:100] Creating Layer conv6_norm
I0314 16:27:12.637001  8828 net.cpp:434] conv6_norm <- pool6_pool6_0_split_1
I0314 16:27:12.637007  8828 net.cpp:408] conv6_norm -> conv6_norm
I0314 16:27:12.637218  8828 net.cpp:150] Setting up conv6_norm
I0314 16:27:12.637229  8828 net.cpp:157] Top shape: 8 256 31 31 (1968128)
I0314 16:27:12.637243  8828 net.cpp:165] Memory required for data: 2234098112
I0314 16:27:12.637262  8828 layer_factory.hpp:77] Creating layer conv6_norm_conv6_norm_0_split
I0314 16:27:12.637293  8828 net.cpp:100] Creating Layer conv6_norm_conv6_norm_0_split
I0314 16:27:12.637300  8828 net.cpp:434] conv6_norm_conv6_norm_0_split <- conv6_norm
I0314 16:27:12.637315  8828 net.cpp:408] conv6_norm_conv6_norm_0_split -> conv6_norm_conv6_norm_0_split_0
I0314 16:27:12.637332  8828 net.cpp:408] conv6_norm_conv6_norm_0_split -> conv6_norm_conv6_norm_0_split_1
I0314 16:27:12.637351  8828 net.cpp:408] conv6_norm_conv6_norm_0_split -> conv6_norm_conv6_norm_0_split_2
I0314 16:27:12.637424  8828 net.cpp:150] Setting up conv6_norm_conv6_norm_0_split
I0314 16:27:12.637442  8828 net.cpp:157] Top shape: 8 256 31 31 (1968128)
I0314 16:27:12.637449  8828 net.cpp:157] Top shape: 8 256 31 31 (1968128)
I0314 16:27:12.637454  8828 net.cpp:157] Top shape: 8 256 31 31 (1968128)
I0314 16:27:12.637459  8828 net.cpp:165] Memory required for data: 2257715648
I0314 16:27:12.637465  8828 layer_factory.hpp:77] Creating layer conv6_norm_mbox_loc
I0314 16:27:12.637485  8828 net.cpp:100] Creating Layer conv6_norm_mbox_loc
I0314 16:27:12.637491  8828 net.cpp:434] conv6_norm_mbox_loc <- conv6_norm_conv6_norm_0_split_0
I0314 16:27:12.637508  8828 net.cpp:408] conv6_norm_mbox_loc -> conv6_norm_mbox_loc
I0314 16:27:12.639617  8828 net.cpp:150] Setting up conv6_norm_mbox_loc
I0314 16:27:12.639654  8828 net.cpp:157] Top shape: 8 16 31 31 (123008)
I0314 16:27:12.639662  8828 net.cpp:165] Memory required for data: 2258207680
I0314 16:27:12.639678  8828 layer_factory.hpp:77] Creating layer conv6_norm_mbox_loc_perm
I0314 16:27:12.639698  8828 net.cpp:100] Creating Layer conv6_norm_mbox_loc_perm
I0314 16:27:12.639705  8828 net.cpp:434] conv6_norm_mbox_loc_perm <- conv6_norm_mbox_loc
I0314 16:27:12.639722  8828 net.cpp:408] conv6_norm_mbox_loc_perm -> conv6_norm_mbox_loc_perm
I0314 16:27:12.639874  8828 net.cpp:150] Setting up conv6_norm_mbox_loc_perm
I0314 16:27:12.639892  8828 net.cpp:157] Top shape: 8 31 31 16 (123008)
I0314 16:27:12.639897  8828 net.cpp:165] Memory required for data: 2258699712
I0314 16:27:12.639904  8828 layer_factory.hpp:77] Creating layer conv6_norm_mbox_loc_flat
I0314 16:27:12.639920  8828 net.cpp:100] Creating Layer conv6_norm_mbox_loc_flat
I0314 16:27:12.639926  8828 net.cpp:434] conv6_norm_mbox_loc_flat <- conv6_norm_mbox_loc_perm
I0314 16:27:12.639935  8828 net.cpp:408] conv6_norm_mbox_loc_flat -> conv6_norm_mbox_loc_flat
I0314 16:27:12.639989  8828 net.cpp:150] Setting up conv6_norm_mbox_loc_flat
I0314 16:27:12.640007  8828 net.cpp:157] Top shape: 8 15376 (123008)
I0314 16:27:12.640012  8828 net.cpp:165] Memory required for data: 2259191744
I0314 16:27:12.640017  8828 layer_factory.hpp:77] Creating layer conv6_norm_mbox_conf
I0314 16:27:12.640038  8828 net.cpp:100] Creating Layer conv6_norm_mbox_conf
I0314 16:27:12.640044  8828 net.cpp:434] conv6_norm_mbox_conf <- conv6_norm_conv6_norm_0_split_1
I0314 16:27:12.640064  8828 net.cpp:408] conv6_norm_mbox_conf -> conv6_norm_mbox_conf
I0314 16:27:12.642099  8828 net.cpp:150] Setting up conv6_norm_mbox_conf
I0314 16:27:12.642135  8828 net.cpp:157] Top shape: 8 16 31 31 (123008)
I0314 16:27:12.642141  8828 net.cpp:165] Memory required for data: 2259683776
I0314 16:27:12.642164  8828 layer_factory.hpp:77] Creating layer conv6_norm_mbox_conf_perm
I0314 16:27:12.642184  8828 net.cpp:100] Creating Layer conv6_norm_mbox_conf_perm
I0314 16:27:12.642191  8828 net.cpp:434] conv6_norm_mbox_conf_perm <- conv6_norm_mbox_conf
I0314 16:27:12.642207  8828 net.cpp:408] conv6_norm_mbox_conf_perm -> conv6_norm_mbox_conf_perm
I0314 16:27:12.642362  8828 net.cpp:150] Setting up conv6_norm_mbox_conf_perm
I0314 16:27:12.642381  8828 net.cpp:157] Top shape: 8 31 31 16 (123008)
I0314 16:27:12.642386  8828 net.cpp:165] Memory required for data: 2260175808
I0314 16:27:12.642391  8828 layer_factory.hpp:77] Creating layer conv6_norm_mbox_conf_flat
I0314 16:27:12.642407  8828 net.cpp:100] Creating Layer conv6_norm_mbox_conf_flat
I0314 16:27:12.642413  8828 net.cpp:434] conv6_norm_mbox_conf_flat <- conv6_norm_mbox_conf_perm
I0314 16:27:12.642436  8828 net.cpp:408] conv6_norm_mbox_conf_flat -> conv6_norm_mbox_conf_flat
I0314 16:27:12.642503  8828 net.cpp:150] Setting up conv6_norm_mbox_conf_flat
I0314 16:27:12.642520  8828 net.cpp:157] Top shape: 8 15376 (123008)
I0314 16:27:12.642525  8828 net.cpp:165] Memory required for data: 2260667840
I0314 16:27:12.642530  8828 layer_factory.hpp:77] Creating layer conv6_norm_mbox_priorbox
I0314 16:27:12.642547  8828 net.cpp:100] Creating Layer conv6_norm_mbox_priorbox
I0314 16:27:12.642554  8828 net.cpp:434] conv6_norm_mbox_priorbox <- conv6_norm_conv6_norm_0_split_2
I0314 16:27:12.642560  8828 net.cpp:434] conv6_norm_mbox_priorbox <- data_data_0_split_4
I0314 16:27:12.642577  8828 net.cpp:408] conv6_norm_mbox_priorbox -> conv6_norm_mbox_priorbox
I0314 16:27:12.642626  8828 net.cpp:150] Setting up conv6_norm_mbox_priorbox
I0314 16:27:12.642642  8828 net.cpp:157] Top shape: 1 2 15376 (30752)
I0314 16:27:12.642648  8828 net.cpp:165] Memory required for data: 2260790848
I0314 16:27:12.642653  8828 layer_factory.hpp:77] Creating layer conv7_norm
I0314 16:27:12.642662  8828 net.cpp:100] Creating Layer conv7_norm
I0314 16:27:12.642668  8828 net.cpp:434] conv7_norm <- relu7
I0314 16:27:12.642685  8828 net.cpp:408] conv7_norm -> conv7_norm
I0314 16:27:12.642927  8828 net.cpp:150] Setting up conv7_norm
I0314 16:27:12.642962  8828 net.cpp:157] Top shape: 8 128 27 27 (746496)
I0314 16:27:12.642982  8828 net.cpp:165] Memory required for data: 2263776832
I0314 16:27:12.642992  8828 layer_factory.hpp:77] Creating layer conv7_norm_conv7_norm_0_split
I0314 16:27:12.643013  8828 net.cpp:100] Creating Layer conv7_norm_conv7_norm_0_split
I0314 16:27:12.643021  8828 net.cpp:434] conv7_norm_conv7_norm_0_split <- conv7_norm
I0314 16:27:12.643043  8828 net.cpp:408] conv7_norm_conv7_norm_0_split -> conv7_norm_conv7_norm_0_split_0
I0314 16:27:12.643061  8828 net.cpp:408] conv7_norm_conv7_norm_0_split -> conv7_norm_conv7_norm_0_split_1
I0314 16:27:12.643079  8828 net.cpp:408] conv7_norm_conv7_norm_0_split -> conv7_norm_conv7_norm_0_split_2
I0314 16:27:12.643157  8828 net.cpp:150] Setting up conv7_norm_conv7_norm_0_split
I0314 16:27:12.643173  8828 net.cpp:157] Top shape: 8 128 27 27 (746496)
I0314 16:27:12.643180  8828 net.cpp:157] Top shape: 8 128 27 27 (746496)
I0314 16:27:12.643185  8828 net.cpp:157] Top shape: 8 128 27 27 (746496)
I0314 16:27:12.643190  8828 net.cpp:165] Memory required for data: 2272734784
I0314 16:27:12.643196  8828 layer_factory.hpp:77] Creating layer conv7_norm_mbox_loc
I0314 16:27:12.643218  8828 net.cpp:100] Creating Layer conv7_norm_mbox_loc
I0314 16:27:12.643224  8828 net.cpp:434] conv7_norm_mbox_loc <- conv7_norm_conv7_norm_0_split_0
I0314 16:27:12.643240  8828 net.cpp:408] conv7_norm_mbox_loc -> conv7_norm_mbox_loc
I0314 16:27:12.643720  8834 data_transformer.cpp:1068] INFER 3
I0314 16:27:12.643755  8834 annotated_data_layer.cpp:234] 8 3
I0314 16:27:12.643761  8834 annotated_data_layer.cpp:234] 3 3
I0314 16:27:12.643766  8834 annotated_data_layer.cpp:234] 300 3
I0314 16:27:12.643772  8834 annotated_data_layer.cpp:234] 300 3
I0314 16:27:12.645207  8828 net.cpp:150] Setting up conv7_norm_mbox_loc
I0314 16:27:12.645246  8828 net.cpp:157] Top shape: 8 16 27 27 (93312)
I0314 16:27:12.645251  8828 net.cpp:165] Memory required for data: 2273108032
I0314 16:27:12.645269  8828 layer_factory.hpp:77] Creating layer conv7_norm_mbox_loc_perm
I0314 16:27:12.645287  8828 net.cpp:100] Creating Layer conv7_norm_mbox_loc_perm
I0314 16:27:12.645293  8828 net.cpp:434] conv7_norm_mbox_loc_perm <- conv7_norm_mbox_loc
I0314 16:27:12.645311  8828 net.cpp:408] conv7_norm_mbox_loc_perm -> conv7_norm_mbox_loc_perm
I0314 16:27:12.645468  8828 net.cpp:150] Setting up conv7_norm_mbox_loc_perm
I0314 16:27:12.645486  8828 net.cpp:157] Top shape: 8 27 27 16 (93312)
I0314 16:27:12.645491  8828 net.cpp:165] Memory required for data: 2273481280
I0314 16:27:12.645498  8828 layer_factory.hpp:77] Creating layer conv7_norm_mbox_loc_flat
I0314 16:27:12.645514  8828 net.cpp:100] Creating Layer conv7_norm_mbox_loc_flat
I0314 16:27:12.645534  8828 net.cpp:434] conv7_norm_mbox_loc_flat <- conv7_norm_mbox_loc_perm
I0314 16:27:12.645557  8828 net.cpp:408] conv7_norm_mbox_loc_flat -> conv7_norm_mbox_loc_flat
I0314 16:27:12.645596  8828 net.cpp:150] Setting up conv7_norm_mbox_loc_flat
I0314 16:27:12.645617  8828 net.cpp:157] Top shape: 8 11664 (93312)
I0314 16:27:12.645623  8828 net.cpp:165] Memory required for data: 2273854528
I0314 16:27:12.645629  8828 layer_factory.hpp:77] Creating layer conv7_norm_mbox_conf
I0314 16:27:12.645668  8828 net.cpp:100] Creating Layer conv7_norm_mbox_conf
I0314 16:27:12.645675  8828 net.cpp:434] conv7_norm_mbox_conf <- conv7_norm_conv7_norm_0_split_1
I0314 16:27:12.645691  8828 net.cpp:408] conv7_norm_mbox_conf -> conv7_norm_mbox_conf
I0314 16:27:12.647734  8828 net.cpp:150] Setting up conv7_norm_mbox_conf
I0314 16:27:12.647763  8828 net.cpp:157] Top shape: 8 16 27 27 (93312)
I0314 16:27:12.647769  8828 net.cpp:165] Memory required for data: 2274227776
I0314 16:27:12.647788  8828 layer_factory.hpp:77] Creating layer conv7_norm_mbox_conf_perm
I0314 16:27:12.647807  8828 net.cpp:100] Creating Layer conv7_norm_mbox_conf_perm
I0314 16:27:12.647814  8828 net.cpp:434] conv7_norm_mbox_conf_perm <- conv7_norm_mbox_conf
I0314 16:27:12.647830  8828 net.cpp:408] conv7_norm_mbox_conf_perm -> conv7_norm_mbox_conf_perm
I0314 16:27:12.647987  8828 net.cpp:150] Setting up conv7_norm_mbox_conf_perm
I0314 16:27:12.648005  8828 net.cpp:157] Top shape: 8 27 27 16 (93312)
I0314 16:27:12.648010  8828 net.cpp:165] Memory required for data: 2274601024
I0314 16:27:12.648015  8828 layer_factory.hpp:77] Creating layer conv7_norm_mbox_conf_flat
I0314 16:27:12.648032  8828 net.cpp:100] Creating Layer conv7_norm_mbox_conf_flat
I0314 16:27:12.648041  8828 net.cpp:434] conv7_norm_mbox_conf_flat <- conv7_norm_mbox_conf_perm
I0314 16:27:12.648056  8828 net.cpp:408] conv7_norm_mbox_conf_flat -> conv7_norm_mbox_conf_flat
I0314 16:27:12.648102  8828 net.cpp:150] Setting up conv7_norm_mbox_conf_flat
I0314 16:27:12.648120  8828 net.cpp:157] Top shape: 8 11664 (93312)
I0314 16:27:12.648125  8828 net.cpp:165] Memory required for data: 2274974272
I0314 16:27:12.648131  8828 layer_factory.hpp:77] Creating layer conv7_norm_mbox_priorbox
I0314 16:27:12.648147  8828 net.cpp:100] Creating Layer conv7_norm_mbox_priorbox
I0314 16:27:12.648154  8828 net.cpp:434] conv7_norm_mbox_priorbox <- conv7_norm_conv7_norm_0_split_2
I0314 16:27:12.648161  8828 net.cpp:434] conv7_norm_mbox_priorbox <- data_data_0_split_5
I0314 16:27:12.648178  8828 net.cpp:408] conv7_norm_mbox_priorbox -> conv7_norm_mbox_priorbox
I0314 16:27:12.648226  8828 net.cpp:150] Setting up conv7_norm_mbox_priorbox
I0314 16:27:12.648242  8828 net.cpp:157] Top shape: 1 2 11664 (23328)
I0314 16:27:12.648247  8828 net.cpp:165] Memory required for data: 2275067584
I0314 16:27:12.648253  8828 layer_factory.hpp:77] Creating layer mbox_loc
I0314 16:27:12.648270  8828 net.cpp:100] Creating Layer mbox_loc
I0314 16:27:12.648277  8828 net.cpp:434] mbox_loc <- conv3_norm_mbox_loc_flat
I0314 16:27:12.648293  8828 net.cpp:434] mbox_loc <- conv4_norm_mbox_loc_flat
I0314 16:27:12.648300  8828 net.cpp:434] mbox_loc <- conv5_norm_mbox_loc_flat
I0314 16:27:12.648308  8828 net.cpp:434] mbox_loc <- conv6_norm_mbox_loc_flat
I0314 16:27:12.648313  8828 net.cpp:434] mbox_loc <- conv7_norm_mbox_loc_flat
I0314 16:27:12.648329  8828 net.cpp:408] mbox_loc -> mbox_loc
I0314 16:27:12.648376  8828 net.cpp:150] Setting up mbox_loc
I0314 16:27:12.648394  8828 net.cpp:157] Top shape: 8 493440 (3947520)
I0314 16:27:12.648399  8828 net.cpp:165] Memory required for data: 2290857664
I0314 16:27:12.648404  8828 layer_factory.hpp:77] Creating layer mbox_conf
I0314 16:27:12.648412  8828 net.cpp:100] Creating Layer mbox_conf
I0314 16:27:12.648418  8828 net.cpp:434] mbox_conf <- conv3_norm_mbox_conf_flat
I0314 16:27:12.648425  8828 net.cpp:434] mbox_conf <- conv4_norm_mbox_conf_flat
I0314 16:27:12.648439  8828 net.cpp:434] mbox_conf <- conv5_norm_mbox_conf_flat
I0314 16:27:12.648445  8828 net.cpp:434] mbox_conf <- conv6_norm_mbox_conf_flat
I0314 16:27:12.648465  8828 net.cpp:434] mbox_conf <- conv7_norm_mbox_conf_flat
I0314 16:27:12.648496  8828 net.cpp:408] mbox_conf -> mbox_conf
I0314 16:27:12.648540  8828 net.cpp:150] Setting up mbox_conf
I0314 16:27:12.648557  8828 net.cpp:157] Top shape: 8 493440 (3947520)
I0314 16:27:12.648562  8828 net.cpp:165] Memory required for data: 2306647744
I0314 16:27:12.648567  8828 layer_factory.hpp:77] Creating layer mbox_priorbox
I0314 16:27:12.648584  8828 net.cpp:100] Creating Layer mbox_priorbox
I0314 16:27:12.648591  8828 net.cpp:434] mbox_priorbox <- conv3_norm_mbox_priorbox
I0314 16:27:12.648597  8828 net.cpp:434] mbox_priorbox <- conv4_norm_mbox_priorbox
I0314 16:27:12.648603  8828 net.cpp:434] mbox_priorbox <- conv5_norm_mbox_priorbox
I0314 16:27:12.648609  8828 net.cpp:434] mbox_priorbox <- conv6_norm_mbox_priorbox
I0314 16:27:12.648615  8828 net.cpp:434] mbox_priorbox <- conv7_norm_mbox_priorbox
I0314 16:27:12.648630  8828 net.cpp:408] mbox_priorbox -> mbox_priorbox
I0314 16:27:12.648671  8828 net.cpp:150] Setting up mbox_priorbox
I0314 16:27:12.648689  8828 net.cpp:157] Top shape: 1 2 493440 (986880)
I0314 16:27:12.648694  8828 net.cpp:165] Memory required for data: 2310595264
I0314 16:27:12.648699  8828 net.cpp:228] mbox_priorbox does not need backward computation.
I0314 16:27:12.648706  8828 net.cpp:228] mbox_conf does not need backward computation.
I0314 16:27:12.648713  8828 net.cpp:228] mbox_loc does not need backward computation.
I0314 16:27:12.648720  8828 net.cpp:228] conv7_norm_mbox_priorbox does not need backward computation.
…
