layer {
  name: "data"
  type: "AnnotatedData"
  top: "data"
  top: "label"
  include {
    phase: TEST
  }
  transform_param {
    mirror: true
    resize_param {
      prob: 1
      resize_mode: WARP
      height: 300
      width: 300
      interp_mode: LINEAR
    }
  data_param {
    source: "/home/styurin/Diploma/lmdb/lmdb_test"
    batch_size: 8
    backend: LMDB
  }
  annotated_data_param {
    batch_sampler {
    }
    label_map_file: "/home/styurin/Diploma/lmdb/label_map_s.prototxt"
  }
}

layer {
  name: "conv1"
  type: "Convolution"
  bottom: "data"
  top: "conv1"
  param { lr_mult: 0 }
  param { lr_mult: 0 }
  convolution_param {
    num_output: 64
    kernel_size: 5
    stride: 1
    weight_filler {
      type: "xavier"
    }
  }
}
layer {
  name: "relu1"
  type: "ReLU"
  bottom: "conv1"
  top: "relu1"
}
layer {
  name: "conv2"
  type: "Convolution"
  bottom: "relu1"
  top: "conv2"
  param { lr_mult: 0 }
  param { lr_mult: 0 }
  convolution_param {
    num_output: 64
    kernel_size: 5
    stride: 1
    weight_filler {
      type: "xavier"
    }
  }
}
layer {
  name: "relu2"
  type: "ReLU"
  bottom: "conv2"
  top: "relu2"
}
layer {
  name: "pool2"
  type: "Pooling"
  bottom: "relu2"
  top: "pool2"
  pooling_param {
    pool: MAX
    kernel_size: 3
    stride: 2
  }
}
layer {
  name: "conv3"
  type: "Convolution"
  bottom: "pool2"
  top: "conv3"
  param { lr_mult: 0 }
  param { lr_mult: 0 }
  convolution_param {
    num_output: 128
    kernel_size: 5
    stride: 1
    weight_filler {
      type: "xavier"
    }
  }
}
layer {
  name: "relu3"
  type: "ReLU"
  bottom: "conv3"
  top: "relu3"
}
layer {
  name: "conv4"
  type: "Convolution"
  bottom: "relu3"
  top: "conv4"
  param { lr_mult: 0 }
  param { lr_mult: 0 }
  convolution_param {
    num_output: 128
    kernel_size: 5
    stride: 1
    weight_filler {
      type: "xavier"
    }
  }
}
layer {
  name: "relu4"
  type: "ReLU"
  bottom: "conv4"
  top: "relu4"
}
layer {
  name: "pool4"
  type: "Pooling"
  bottom: "relu4"
  top: "pool4"
  pooling_param {
    pool: MAX
    kernel_size: 3
    stride: 2
  }
}
layer {
  name: "conv5"
  type: "Convolution"
  bottom: "pool4"
  top: "conv5"
  param { lr_mult: 0 }
  param { lr_mult: 0 }
  convolution_param {
    num_output: 256
    kernel_size: 5
    stride: 1
    weight_filler {
      type: "xavier"
    }
  }
}
layer {
  name: "relu5"
  type: "ReLU"
  bottom: "conv5"
  top: "relu5"
}
layer {
  name: "conv6"
  type: "Convolution"
  bottom: "relu5"
  top: "conv6"
  param { lr_mult: 0 }
  param { lr_mult: 0 }
  convolution_param {
    num_output: 256
    kernel_size: 5
    stride: 1
    weight_filler {
      type: "xavier"
    }
  }
}
layer {
  name: "relu6"
  type: "ReLU"
  bottom: "conv6"
  top: "relu6"
}


layer {
  name: "pool6"
  type: "Pooling"
  bottom: "relu6"
  top: "pool6"
  pooling_param {
    pool: MAX
    kernel_size: 2
    stride: 2
  }
}

layer {
  name: "conv7"
  type: "Convolution"
  bottom: "pool6"
  top: "conv7"
  param { lr_mult: 0 }
  param { lr_mult: 0 }
  convolution_param {
    num_output: 128
    kernel_size: 5
    stride: 1
    weight_filler {
      type: "xavier"
    }
  }
}
layer {
  name: "relu7"
  type: "ReLU"
  bottom: "conv7"
  top: "relu7"
}

layer {
  name: "conv3_norm"
  type: "Normalize"
  bottom: "relu3"
  top: "conv3_norm"
  norm_param {
    across_spatial: false
    scale_filler {
      type: "constant"
      value: 20
    }
    channel_shared: false
  }
}
layer {
  name: "conv3_norm_mbox_loc"
  type: "Convolution"
  bottom: "conv3_norm"
  top: "conv3_norm_mbox_loc"
  param {
    lr_mult: 1
    decay_mult: 1
  }
  param {
    lr_mult: 2
    decay_mult: 0
  }
  convolution_param {
    num_output: 16
    pad: 1
    kernel_size: 3
    stride: 1
    weight_filler {
      type: "xavier"
    }
    bias_filler {
      type: "constant"
      value: 0
    }
  }
}
layer {
  name: "conv3_norm_mbox_loc_perm"
  type: "Permute"
  bottom: "conv3_norm_mbox_loc"
  top: "conv3_norm_mbox_loc_perm"
  permute_param {
    order: 0
    order: 2
    order: 3
    order: 1
  }
}
layer {
  name: "conv3_norm_mbox_loc_flat"
  type: "Flatten"
  bottom: "conv3_norm_mbox_loc_perm"
  top: "conv3_norm_mbox_loc_flat"
  flatten_param {
    axis: 1
  }
}
layer {
  name: "conv3_norm_mbox_conf"
  type: "Convolution"
  bottom: "conv3_norm"
  top: "conv3_norm_mbox_conf"
  param {
    lr_mult: 1
    decay_mult: 1
  }
  param {
    lr_mult: 2
    decay_mult: 0
  }
  convolution_param {
    num_output: 16
    pad: 1
    kernel_size: 3
    stride: 1
    weight_filler {
      type: "xavier"
    }
    bias_filler {
      type: "constant"
      value: 0
    }
  }
}
layer {
  name: "conv3_norm_mbox_conf_perm"
  type: "Permute"
  bottom: "conv3_norm_mbox_conf"
  top: "conv3_norm_mbox_conf_perm"
  permute_param {
    order: 0
    order: 2
    order: 3
    order: 1
  }
}
layer {
  name: "conv3_norm_mbox_conf_flat"
  type: "Flatten"
  bottom: "conv3_norm_mbox_conf_perm"
  top: "conv3_norm_mbox_conf_flat"
  flatten_param {
    axis: 1
  }
}
layer {
  name: "conv3_norm_mbox_priorbox"
  type: "PriorBox"
  bottom: "conv3_norm"
  bottom: "data"
  top: "conv3_norm_mbox_priorbox"
  prior_box_param {
    min_size: 30.0
    max_size: 60.0
    aspect_ratio: 2
    flip: true
    clip: false
    variance: 0.1
    variance: 0.1
    variance: 0.2
    variance: 0.2
    step: 8
    offset: 0.5
  }
}

layer {
  name: "conv4_norm"
  type: "Normalize"
  bottom: "pool4"
  top: "conv4_norm"
  norm_param {
    across_spatial: false
    scale_filler {
      type: "constant"
      value: 20
    }
    channel_shared: false
  }
}
layer {
  name: "conv4_norm_mbox_loc"
  type: "Convolution"
  bottom: "conv4_norm"
  top: "conv4_norm_mbox_loc"
  param {
    lr_mult: 1
    decay_mult: 1
  }
  param {
    lr_mult: 2
    decay_mult: 0
  }
  convolution_param {
    num_output: 16
    pad: 1
    kernel_size: 3
    stride: 1
    weight_filler {
      type: "xavier"
    }
    bias_filler {
      type: "constant"
      value: 0
    }
  }
}
layer {
  name: "conv4_norm_mbox_loc_perm"
  type: "Permute"
  bottom: "conv4_norm_mbox_loc"
  top: "conv4_norm_mbox_loc_perm"
  permute_param {
    order: 0
    order: 2
    order: 3
    order: 1
  }
}
layer {
  name: "conv4_norm_mbox_loc_flat"
  type: "Flatten"
  bottom: "conv4_norm_mbox_loc_perm"
  top: "conv4_norm_mbox_loc_flat"
  flatten_param {
    axis: 1
  }
}
layer {
  name: "conv4_norm_mbox_conf"
  type: "Convolution"
  bottom: "conv4_norm"
  top: "conv4_norm_mbox_conf"
  param {
    lr_mult: 1
    decay_mult: 1
  }
  param {
    lr_mult: 2
    decay_mult: 0
  }
  convolution_param {
    num_output: 16
    pad: 1
    kernel_size: 3
    stride: 1
    weight_filler {
      type: "xavier"
    }
    bias_filler {
      type: "constant"
      value: 0
    }
  }
}
layer {
  name: "conv4_norm_mbox_conf_perm"
  type: "Permute"
  bottom: "conv4_norm_mbox_conf"
  top: "conv4_norm_mbox_conf_perm"
  permute_param {
    order: 0
    order: 2
    order: 3
    order: 1
  }
}
layer {
  name: "conv4_norm_mbox_conf_flat"
  type: "Flatten"
  bottom: "conv4_norm_mbox_conf_perm"
  top: "conv4_norm_mbox_conf_flat"
  flatten_param {
    axis: 1
  }
}
layer {
  name: "conv4_norm_mbox_priorbox"
  type: "PriorBox"
  bottom: "conv4_norm"
  bottom: "data"
  top: "conv4_norm_mbox_priorbox"
  prior_box_param {
    min_size: 30.0
    max_size: 60.0
    aspect_ratio: 2
    flip: true
    clip: false
    variance: 0.1
    variance: 0.1
    variance: 0.2
    variance: 0.2
    step: 8
    offset: 0.5
  }
}

layer {
  name: "conv5_norm"
  type: "Normalize"
  bottom: "relu5"
  top: "conv5_norm"
  norm_param {
    across_spatial: false
    scale_filler {
      type: "constant"
      value: 20
    }
    channel_shared: false
  }
}
layer {
  name: "conv5_norm_mbox_loc"
  type: "Convolution"
  bottom: "conv5_norm"
  top: "conv5_norm_mbox_loc"
  param {
    lr_mult: 1
    decay_mult: 1
  }
  param {
    lr_mult: 2
    decay_mult: 0
  }
  convolution_param {
    num_output: 16
    pad: 1
    kernel_size: 3
    stride: 1
    weight_filler {
      type: "xavier"
    }
    bias_filler {
      type: "constant"
      value: 0
    }
  }
}
layer {
  name: "conv5_norm_mbox_loc_perm"
  type: "Permute"
  bottom: "conv5_norm_mbox_loc"
  top: "conv5_norm_mbox_loc_perm"
  permute_param {
    order: 0
    order: 2
    order: 3
    order: 1
  }
}
layer {
  name: "conv5_norm_mbox_loc_flat"
  type: "Flatten"
  bottom: "conv5_norm_mbox_loc_perm"
  top: "conv5_norm_mbox_loc_flat"
  flatten_param {
    axis: 1
  }
}
layer {
  name: "conv5_norm_mbox_conf"
  type: "Convolution"
  bottom: "conv5_norm"
  top: "conv5_norm_mbox_conf"
  param {
    lr_mult: 1
    decay_mult: 1
  }
  param {
    lr_mult: 2
    decay_mult: 0
  }
  convolution_param {
    num_output: 16
    pad: 1
    kernel_size: 3
    stride: 1
    weight_filler {
      type: "xavier"
    }
    bias_filler {
      type: "constant"
      value: 0
    }
  }
}
layer {
  name: "conv5_norm_mbox_conf_perm"
  type: "Permute"
  bottom: "conv5_norm_mbox_conf"
  top: "conv5_norm_mbox_conf_perm"
  permute_param {
    order: 0
    order: 2
    order: 3
    order: 1
  }
}
layer {
  name: "conv5_norm_mbox_conf_flat"
  type: "Flatten"
  bottom: "conv5_norm_mbox_conf_perm"
  top: "conv5_norm_mbox_conf_flat"
  flatten_param {
    axis: 1
  }
}
layer {
  name: "conv5_norm_mbox_priorbox"
  type: "PriorBox"
  bottom: "conv5_norm"
  bottom: "data"
  top: "conv5_norm_mbox_priorbox"
  prior_box_param {
    min_size: 30.0
    max_size: 60.0
    aspect_ratio: 2
    flip: true
    clip: false
    variance: 0.1
    variance: 0.1
    variance: 0.2
    variance: 0.2
    step: 8
    offset: 0.5
  }
}

layer {
  name: "conv6_norm"
  type: "Normalize"
  bottom: "pool6"
  top: "conv6_norm"
  norm_param {
    across_spatial: false
    scale_filler {
      type: "constant"
      value: 20
    }
    channel_shared: false
  }
}
layer {
  name: "conv6_norm_mbox_loc"
  type: "Convolution"
  bottom: "conv6_norm"
  top: "conv6_norm_mbox_loc"
  param {
    lr_mult: 1
    decay_mult: 1
  }
  param {
    lr_mult: 2
    decay_mult: 0
  }
  convolution_param {
    num_output: 16
    pad: 1
    kernel_size: 3
    stride: 1
    weight_filler {
      type: "xavier"
    }
    bias_filler {
      type: "constant"
      value: 0
    }
  }
}
layer {
  name: "conv6_norm_mbox_loc_perm"
  type: "Permute"
  bottom: "conv6_norm_mbox_loc"
  top: "conv6_norm_mbox_loc_perm"
  permute_param {
    order: 0
    order: 2
    order: 3
    order: 1
  }
}
layer {
  name: "conv6_norm_mbox_loc_flat"
  type: "Flatten"
  bottom: "conv6_norm_mbox_loc_perm"
  top: "conv6_norm_mbox_loc_flat"
  flatten_param {
    axis: 1
  }
}
layer {
  name: "conv6_norm_mbox_conf"
  type: "Convolution"
  bottom: "conv6_norm"
  top: "conv6_norm_mbox_conf"
  param {
    lr_mult: 1
    decay_mult: 1
  }
  param {
    lr_mult: 2
    decay_mult: 0
  }
  convolution_param {
    num_output: 16
    pad: 1
    kernel_size: 3
    stride: 1
    weight_filler {
      type: "xavier"
    }
    bias_filler {
      type: "constant"
      value: 0
    }
  }
}
layer {
  name: "conv6_norm_mbox_conf_perm"
  type: "Permute"
  bottom: "conv6_norm_mbox_conf"
  top: "conv6_norm_mbox_conf_perm"
  permute_param {
    order: 0
    order: 2
    order: 3
    order: 1
  }
}
layer {
  name: "conv6_norm_mbox_conf_flat"
  type: "Flatten"
  bottom: "conv6_norm_mbox_conf_perm"
  top: "conv6_norm_mbox_conf_flat"
  flatten_param {
    axis: 1
  }
}
layer {
  name: "conv6_norm_mbox_priorbox"
  type: "PriorBox"
  bottom: "conv6_norm"
  bottom: "data"
  top: "conv6_norm_mbox_priorbox"
  prior_box_param {
    min_size: 30.0
    max_size: 60.0
    aspect_ratio: 2
    flip: true
    clip: false
    variance: 0.1
    variance: 0.1
    variance: 0.2
    variance: 0.2
    step: 8
    offset: 0.5
  }
}

layer {
  name: "conv7_norm"
  type: "Normalize"
  bottom: "relu7"
  top: "conv7_norm"
  norm_param {
    across_spatial: false
    scale_filler {
      type: "constant"
      value: 20
    }
    channel_shared: false
  }
}
layer {
  name: "conv7_norm_mbox_loc"
  type: "Convolution"
  bottom: "conv7_norm"
  top: "conv7_norm_mbox_loc"
  param {
    lr_mult: 1
    decay_mult: 1
  }
  param {
    lr_mult: 2
    decay_mult: 0
  }
  convolution_param {
    num_output: 16
    pad: 1
    kernel_size: 3
    stride: 1
    weight_filler {
      type: "xavier"
    }
    bias_filler {
      type: "constant"
      value: 0
    }
  }
}
layer {
  name: "conv7_norm_mbox_loc_perm"
  type: "Permute"
  bottom: "conv7_norm_mbox_loc"
  top: "conv7_norm_mbox_loc_perm"
  permute_param {
    order: 0
    order: 2
    order: 3
    order: 1
  }
}
layer {
  name: "conv7_norm_mbox_loc_flat"
  type: "Flatten"
  bottom: "conv7_norm_mbox_loc_perm"
  top: "conv7_norm_mbox_loc_flat"
  flatten_param {
    axis: 1
  }
}
layer {
  name: "conv7_norm_mbox_conf"
  type: "Convolution"
  bottom: "conv7_norm"
  top: "conv7_norm_mbox_conf"
  param {
    lr_mult: 1
    decay_mult: 1
  }
  param {
    lr_mult: 2
    decay_mult: 0
  }
  convolution_param {
    num_output: 16
    pad: 1
    kernel_size: 3
    stride: 1
    weight_filler {
      type: "xavier"
    }
    bias_filler {
      type: "constant"
      value: 0
    }
  }
}
layer {
  name: "conv7_norm_mbox_conf_perm"
  type: "Permute"
  bottom: "conv7_norm_mbox_conf"
  top: "conv7_norm_mbox_conf_perm"
  permute_param {
    order: 0
    order: 2
    order: 3
    order: 1
  }
}
layer {
  name: "conv7_norm_mbox_conf_flat"
  type: "Flatten"
  bottom: "conv7_norm_mbox_conf_perm"
  top: "conv7_norm_mbox_conf_flat"
  flatten_param {
    axis: 1
  }
}
layer {
  name: "conv7_norm_mbox_priorbox"
  type: "PriorBox"
  bottom: "conv7_norm"
  bottom: "data"
  top: "conv7_norm_mbox_priorbox"
  prior_box_param {
    min_size: 30.0
    max_size: 60.0
    aspect_ratio: 2
    flip: true
    clip: false
    variance: 0.1
    variance: 0.1
    variance: 0.2
    variance: 0.2
    step: 8
    offset: 0.5
  }
}

layer {
  name: "mbox_loc"
  type: "Concat"
  bottom: "conv3_norm_mbox_loc_flat"
  bottom: "conv4_norm_mbox_loc_flat"
  bottom: "conv5_norm_mbox_loc_flat"
  bottom: "conv6_norm_mbox_loc_flat"
  bottom: "conv7_norm_mbox_loc_flat"
  top: "mbox_loc"
  concat_param {
    axis: 1
  }
}
layer {
  name: "mbox_conf"
  type: "Concat"
  bottom: "conv3_norm_mbox_conf_flat"
  bottom: "conv4_norm_mbox_conf_flat"
  bottom: "conv5_norm_mbox_conf_flat"
  bottom: "conv6_norm_mbox_conf_flat"
  bottom: "conv7_norm_mbox_conf_flat"
  top: "mbox_conf"
  concat_param {
    axis: 1
  }
}
layer {
  name: "mbox_priorbox"
  type: "Concat"
  bottom: "conv3_norm_mbox_priorbox"
  bottom: "conv4_norm_mbox_priorbox"
  bottom: "conv5_norm_mbox_priorbox"
  bottom: "conv6_norm_mbox_priorbox"
  bottom: "conv7_norm_mbox_priorbox"
  top: "mbox_priorbox"
  concat_param {
    axis: 2
  }
}

layer {
  name: "mbox_conf_reshape"
  type: "Reshape"
  bottom: "mbox_conf"
  top: "mbox_conf_reshape"
  reshape_param {
    shape {
      dim: 0
      dim: -1
      dim: 21
    }
  }
}

layer {
  name: "mbox_conf_softmax"
  type: "Softmax"
  bottom: "mbox_conf_reshape"
  top: "mbox_conf_softmax"
  softmax_param {
    axis: 2
  }
}
layer {
  name: "mbox_conf_flatten"
  type: "Flatten"
  bottom: "mbox_conf_softmax"
  top: "mbox_conf_flatten"
  flatten_param {
    axis: 1
  }
}
layer {
  name: "detection_out"
  type: "DetectionOutput"
  bottom: "mbox_loc"
  bottom: "mbox_conf_flatten"
  bottom: "mbox_priorbox"
  top: "detection_out"
  include {
    phase: TEST
  }
  detection_output_param {
    num_classes: 21
    share_location: true
    background_label_id: 0
    nms_param {
      nms_threshold: 0.45
      top_k: 400
    }
    save_output_param {
      output_name_prefix: "comp4_det_test_"
      output_format: "VOC"
      label_map_file: "/home/styurin/Diploma/lmdb/label_map_s.prototxt"
      name_size_file: "/home/styurin/Diploma/lmdb/test_name_size.txt"
      num_test_image: 70
    }
    code_type: CENTER_SIZE
    keep_top_k: 200
    confidence_threshold: 0.01
  }
}
layer {
  name: "detection_eval"
  type: "DetectionEvaluate"
  bottom: "detection_out"
  bottom: "label"
  top: "detection_eval"
  include {
    phase: TEST
  }
  detection_evaluate_param {
    num_classes: 21
    background_label_id: 0
    overlap_threshold: 0.5
    evaluate_difficult_gt: false
    name_size_file: "data/VOC0712/test_name_size.txt"
  }
}

